{
  "nodes": [
    {
      "op": "null", 
      "name": "target", 
      "inputs": []
    }, 
    {
      "op": "null", 
      "name": "target_embed_weight", 
      "attrs": {"__shape__": "(8323, 512)"}, 
      "inputs": []
    }, 
    {
      "op": "Embedding", 
      "name": "target_embed_embed", 
      "attrs": {
        "input_dim": "8323", 
        "output_dim": "512"
      }, 
      "inputs": [[0, 0, 0], [1, 0, 0]]
    }, 
    {
      "op": "_mul_scalar", 
      "name": "_mulscalar4", 
      "attrs": {"scalar": "22.627416997969522"}, 
      "inputs": [[2, 0, 0]]
    }, 
    {
      "op": "_arange", 
      "name": "_arange3", 
      "attrs": {
        "dtype": "float32", 
        "infer_range": "False", 
        "repeat": "1", 
        "start": "0", 
        "step": "1.0", 
        "stop": "100"
      }, 
      "inputs": []
    }, 
    {
      "op": "expand_dims", 
      "name": "expand_dims4", 
      "attrs": {"axis": "1"}, 
      "inputs": [[4, 0, 0]]
    }, 
    {
      "op": "_arange", 
      "name": "_arange4", 
      "attrs": {
        "dtype": "float32", 
        "infer_range": "False", 
        "repeat": "1", 
        "start": "0", 
        "step": "1.0", 
        "stop": "256"
      }, 
      "inputs": []
    }, 
    {
      "op": "_mul_scalar", 
      "name": "_mulscalar3", 
      "attrs": {"scalar": "2"}, 
      "inputs": [[6, 0, 0]]
    }, 
    {
      "op": "_div_scalar", 
      "name": "_divscalar1", 
      "attrs": {"scalar": "512"}, 
      "inputs": [[7, 0, 0]]
    }, 
    {
      "op": "_rpower_scalar", 
      "name": "_rpowerscalar1", 
      "attrs": {"scalar": "10000"}, 
      "inputs": [[8, 0, 0]]
    }, 
    {
      "op": "_rdiv_scalar", 
      "name": "_rdivscalar1", 
      "attrs": {"scalar": "1.0"}, 
      "inputs": [[9, 0, 0]]
    }, 
    {
      "op": "expand_dims", 
      "name": "expand_dims5", 
      "attrs": {"axis": "0"}, 
      "inputs": [[10, 0, 0]]
    }, 
    {
      "op": "dot", 
      "name": "dot1", 
      "inputs": [[5, 0, 0], [11, 0, 0]]
    }, 
    {
      "op": "sin", 
      "name": "sin1", 
      "inputs": [[12, 0, 0]]
    }, 
    {
      "op": "cos", 
      "name": "cos1", 
      "inputs": [[12, 0, 0]]
    }, 
    {
      "op": "Concat", 
      "name": "concat1", 
      "attrs": {
        "dim": "1", 
        "num_args": "2"
      }, 
      "inputs": [[13, 0, 0], [14, 0, 0]]
    }, 
    {
      "op": "BlockGrad", 
      "name": "blockgrad2", 
      "inputs": [[15, 0, 0]]
    }, 
    {
      "op": "broadcast_add", 
      "name": "target_pos_embed__add", 
      "inputs": [[3, 0, 0], [16, 0, 0]]
    }, 
    {
      "op": "Dropout", 
      "name": "dropout1", 
      "attrs": {"p": "0.1"}, 
      "inputs": [[17, 0, 0]]
    }, 
    {
      "op": "null", 
      "name": "decoder_transformer_0_att_self_pre_norm_gamma", 
      "attrs": {
        "__dtype__": "0", 
        "__init__": "[\"constant\", {\"value\": 1.0}]", 
        "__lr_mult__": "1.0", 
        "__storage_type__": "0", 
        "__wd_mult__": "1.0"
      }, 
      "inputs": []
    }, 
    {
      "op": "null", 
      "name": "decoder_transformer_0_att_self_pre_norm_beta", 
      "attrs": {
        "__dtype__": "0", 
        "__init__": "[\"constant\", {\"value\": 0.0}]", 
        "__lr_mult__": "1.0", 
        "__storage_type__": "0", 
        "__wd_mult__": "1.0"
      }, 
      "inputs": []
    }, 
    {
      "op": "LayerNorm", 
      "name": "decoder_transformer_0_att_self_pre_normlayernorm0", 
      "attrs": {
        "axis": "-1", 
        "eps": "1e-06", 
        "output_mean_var": "False"
      }, 
      "inputs": [[18, 0, 0], [19, 0, 0], [20, 0, 0]]
    }, 
    {
      "op": "null", 
      "name": "decoder_transformer_0_att_self_i2h_weight", 
      "attrs": {
        "__dtype__": "0", 
        "__lr_mult__": "1.0", 
        "__shape__": "(1536, 0)", 
        "__storage_type__": "0", 
        "__wd_mult__": "1.0"
      }, 
      "inputs": []
    }, 
    {
      "op": "FullyConnected", 
      "name": "decoder_transformer_0_att_self_i2h_fwd", 
      "attrs": {
        "flatten": "False", 
        "no_bias": "True", 
        "num_hidden": "1536"
      }, 
      "inputs": [[21, 0, 0], [22, 0, 0]]
    }, 
    {
      "op": "SliceChannel", 
      "name": "decoder_transformer_0_att_self_split0", 
      "attrs": {
        "axis": "2", 
        "num_outputs": "3"
      }, 
      "inputs": [[23, 0, 0]]
    }, 
    {
      "op": "_mul_scalar", 
      "name": "decoder_transformer_0_att_self__mulscalar0", 
      "attrs": {"scalar": "0.125"}, 
      "inputs": [[24, 0, 0]]
    }, 
    {
      "op": "Reshape", 
      "name": "decoder_transformer_0_att_self_reshape0", 
      "attrs": {"shape": "(0, -1, 8, 64)"}, 
      "inputs": [[25, 0, 0]]
    }, 
    {
      "op": "transpose", 
      "name": "decoder_transformer_0_att_self_transpose0", 
      "attrs": {"axes": "(0, 2, 1, 3)"}, 
      "inputs": [[26, 0, 0]]
    }, 
    {
      "op": "Reshape", 
      "name": "decoder_transformer_0_att_self_reshape1", 
      "attrs": {"shape": "(-3, -1, 64)"}, 
      "inputs": [[27, 0, 0]]
    }, 
    {
      "op": "Reshape", 
      "name": "decoder_transformer_0_att_self_reshape2", 
      "attrs": {"shape": "(0, -1, 8, 64)"}, 
      "inputs": [[24, 1, 0]]
    }, 
    {
      "op": "transpose", 
      "name": "decoder_transformer_0_att_self_transpose1", 
      "attrs": {"axes": "(0, 2, 1, 3)"}, 
      "inputs": [[29, 0, 0]]
    }, 
    {
      "op": "Reshape", 
      "name": "decoder_transformer_0_att_self_reshape3", 
      "attrs": {"shape": "(-3, -1, 64)"}, 
      "inputs": [[30, 0, 0]]
    }, 
    {
      "op": "batch_dot", 
      "name": "decoder_transformer_0_att_self_dot_attbatch_dot0", 
      "attrs": {"transpose_b": "True"}, 
      "inputs": [[28, 0, 0], [31, 0, 0]]
    }, 
    {
      "op": "_arange", 
      "name": "_arange2", 
      "attrs": {
        "dtype": "float32", 
        "infer_range": "False", 
        "repeat": "1", 
        "start": "100", 
        "step": "1.0", 
        "stop": "None"
      }, 
      "inputs": []
    }, 
    {
      "op": "Reshape", 
      "name": "reshape0", 
      "attrs": {"shape": "(1, -1)"}, 
      "inputs": [[33, 0, 0]]
    }, 
    {
      "op": "Reshape", 
      "name": "reshape1", 
      "attrs": {"shape": "(-1, 1)"}, 
      "inputs": [[33, 0, 0]]
    }, 
    {
      "op": "broadcast_greater", 
      "name": "broadcast_greater0", 
      "inputs": [[34, 0, 0], [35, 0, 0]]
    }, 
    {
      "op": "_mul_scalar", 
      "name": "_mulscalar2", 
      "attrs": {"scalar": "-99999999.0"}, 
      "inputs": [[36, 0, 0]]
    }, 
    {
      "op": "Reshape", 
      "name": "reshape2", 
      "attrs": {"shape": "(1, 100, 100)"}, 
      "inputs": [[37, 0, 0]]
    }, 
    {
      "op": "BlockGrad", 
      "name": "blockgrad1", 
      "inputs": [[38, 0, 0]]
    }, 
    {
      "op": "broadcast_add", 
      "name": "decoder_transformer_0_att_self_dot_attbroadcast_add0", 
      "inputs": [[32, 0, 0], [39, 0, 0]]
    }, 
    {
      "op": "softmax", 
      "name": "decoder_transformer_0_att_self_dot_attsoftmax0", 
      "attrs": {"axis": "-1"}, 
      "inputs": [[40, 0, 0]]
    }, 
    {
      "op": "Dropout", 
      "name": "decoder_transformer_0_att_self_dot_attdropout0", 
      "attrs": {"p": "0.1"}, 
      "inputs": [[41, 0, 0]]
    }, 
    {
      "op": "Reshape", 
      "name": "decoder_transformer_0_att_self_reshape4", 
      "attrs": {"shape": "(0, -1, 8, 64)"}, 
      "inputs": [[24, 2, 0]]
    }, 
    {
      "op": "transpose", 
      "name": "decoder_transformer_0_att_self_transpose2", 
      "attrs": {"axes": "(0, 2, 1, 3)"}, 
      "inputs": [[43, 0, 0]]
    }, 
    {
      "op": "Reshape", 
      "name": "decoder_transformer_0_att_self_reshape5", 
      "attrs": {"shape": "(-3, -1, 64)"}, 
      "inputs": [[44, 0, 0]]
    }, 
    {
      "op": "batch_dot", 
      "name": "decoder_transformer_0_att_self_dot_attbatch_dot1", 
      "inputs": [[42, 0, 0], [45, 0, 0]]
    }, 
    {
      "op": "Reshape", 
      "name": "decoder_transformer_0_att_self_reshape6", 
      "attrs": {"shape": "(-4, -1, 8, 0, 64)"}, 
      "inputs": [[46, 0, 0]]
    }, 
    {
      "op": "transpose", 
      "name": "decoder_transformer_0_att_self_transpose3", 
      "attrs": {"axes": "(0, 2, 1, 3)"}, 
      "inputs": [[47, 0, 0]]
    }, 
    {
      "op": "Reshape", 
      "name": "decoder_transformer_0_att_self_reshape7", 
      "attrs": {"shape": "(-1, 0, 512)"}, 
      "inputs": [[48, 0, 0]]
    }, 
    {
      "op": "null", 
      "name": "decoder_transformer_0_att_self_h2o_weight", 
      "attrs": {
        "__dtype__": "0", 
        "__lr_mult__": "1.0", 
        "__shape__": "(512, 0)", 
        "__storage_type__": "0", 
        "__wd_mult__": "1.0"
      }, 
      "inputs": []
    }, 
    {
      "op": "FullyConnected", 
      "name": "decoder_transformer_0_att_self_h2o_fwd", 
      "attrs": {
        "flatten": "False", 
        "no_bias": "True", 
        "num_hidden": "512"
      }, 
      "inputs": [[49, 0, 0], [50, 0, 0]]
    }, 
    {
      "op": "Dropout", 
      "name": "decoder_transformer_0_att_self_post_dropout0", 
      "attrs": {"p": "0.1"}, 
      "inputs": [[51, 0, 0]]
    }, 
    {
      "op": "elemwise_add", 
      "name": "decoder_transformer_0_att_self_post__plus0", 
      "inputs": [[52, 0, 0], [18, 0, 0]]
    }, 
    {
      "op": "null", 
      "name": "decoder_transformer_0_att_enc_pre_norm_gamma", 
      "attrs": {
        "__dtype__": "0", 
        "__init__": "[\"constant\", {\"value\": 1.0}]", 
        "__lr_mult__": "1.0", 
        "__storage_type__": "0", 
        "__wd_mult__": "1.0"
      }, 
      "inputs": []
    }, 
    {
      "op": "null", 
      "name": "decoder_transformer_0_att_enc_pre_norm_beta", 
      "attrs": {
        "__dtype__": "0", 
        "__init__": "[\"constant\", {\"value\": 0.0}]", 
        "__lr_mult__": "1.0", 
        "__storage_type__": "0", 
        "__wd_mult__": "1.0"
      }, 
      "inputs": []
    }, 
    {
      "op": "LayerNorm", 
      "name": "decoder_transformer_0_att_enc_pre_normlayernorm0", 
      "attrs": {
        "axis": "-1", 
        "eps": "1e-06", 
        "output_mean_var": "False"
      }, 
      "inputs": [[53, 0, 0], [54, 0, 0], [55, 0, 0]]
    }, 
    {
      "op": "null", 
      "name": "decoder_transformer_0_att_enc_q2h_weight", 
      "attrs": {
        "__dtype__": "0", 
        "__lr_mult__": "1.0", 
        "__shape__": "(512, 0)", 
        "__storage_type__": "0", 
        "__wd_mult__": "1.0"
      }, 
      "inputs": []
    }, 
    {
      "op": "FullyConnected", 
      "name": "decoder_transformer_0_att_enc_q2h_fwd", 
      "attrs": {
        "flatten": "False", 
        "no_bias": "True", 
        "num_hidden": "512"
      }, 
      "inputs": [[56, 0, 0], [57, 0, 0]]
    }, 
    {
      "op": "_mul_scalar", 
      "name": "decoder_transformer_0_att_enc__mulscalar0", 
      "attrs": {"scalar": "0.125"}, 
      "inputs": [[58, 0, 0]]
    }, 
    {
      "op": "Reshape", 
      "name": "decoder_transformer_0_att_enc_reshape0", 
      "attrs": {"shape": "(0, -1, 8, 64)"}, 
      "inputs": [[59, 0, 0]]
    }, 
    {
      "op": "transpose", 
      "name": "decoder_transformer_0_att_enc_transpose0", 
      "attrs": {"axes": "(0, 2, 1, 3)"}, 
      "inputs": [[60, 0, 0]]
    }, 
    {
      "op": "Reshape", 
      "name": "decoder_transformer_0_att_enc_reshape1", 
      "attrs": {"shape": "(-3, -1, 64)"}, 
      "inputs": [[61, 0, 0]]
    }, 
    {
      "op": "null", 
      "name": "source", 
      "inputs": []
    }, 
    {
      "op": "SliceChannel", 
      "name": "source_embed_factor_split", 
      "attrs": {
        "axis": "2", 
        "num_outputs": "1", 
        "squeeze_axis": "True"
      }, 
      "inputs": [[63, 0, 0]]
    }, 
    {
      "op": "null", 
      "name": "source_embed_weight", 
      "attrs": {"__shape__": "(7276, 512)"}, 
      "inputs": []
    }, 
    {
      "op": "Embedding", 
      "name": "source_embed_embed", 
      "attrs": {
        "input_dim": "7276", 
        "output_dim": "512"
      }, 
      "inputs": [[64, 0, 0], [65, 0, 0]]
    }, 
    {
      "op": "_mul_scalar", 
      "name": "_mulscalar1", 
      "attrs": {"scalar": "22.627416997969522"}, 
      "inputs": [[66, 0, 0]]
    }, 
    {
      "op": "_arange", 
      "name": "_arange0", 
      "attrs": {
        "dtype": "float32", 
        "infer_range": "False", 
        "repeat": "1", 
        "start": "0", 
        "step": "1.0", 
        "stop": "100"
      }, 
      "inputs": []
    }, 
    {
      "op": "expand_dims", 
      "name": "expand_dims0", 
      "attrs": {"axis": "1"}, 
      "inputs": [[68, 0, 0]]
    }, 
    {
      "op": "_arange", 
      "name": "_arange1", 
      "attrs": {
        "dtype": "float32", 
        "infer_range": "False", 
        "repeat": "1", 
        "start": "0", 
        "step": "1.0", 
        "stop": "256"
      }, 
      "inputs": []
    }, 
    {
      "op": "_mul_scalar", 
      "name": "_mulscalar0", 
      "attrs": {"scalar": "2"}, 
      "inputs": [[70, 0, 0]]
    }, 
    {
      "op": "_div_scalar", 
      "name": "_divscalar0", 
      "attrs": {"scalar": "512"}, 
      "inputs": [[71, 0, 0]]
    }, 
    {
      "op": "_rpower_scalar", 
      "name": "_rpowerscalar0", 
      "attrs": {"scalar": "10000"}, 
      "inputs": [[72, 0, 0]]
    }, 
    {
      "op": "_rdiv_scalar", 
      "name": "_rdivscalar0", 
      "attrs": {"scalar": "1.0"}, 
      "inputs": [[73, 0, 0]]
    }, 
    {
      "op": "expand_dims", 
      "name": "expand_dims1", 
      "attrs": {"axis": "0"}, 
      "inputs": [[74, 0, 0]]
    }, 
    {
      "op": "dot", 
      "name": "dot0", 
      "inputs": [[69, 0, 0], [75, 0, 0]]
    }, 
    {
      "op": "sin", 
      "name": "sin0", 
      "inputs": [[76, 0, 0]]
    }, 
    {
      "op": "cos", 
      "name": "cos0", 
      "inputs": [[76, 0, 0]]
    }, 
    {
      "op": "Concat", 
      "name": "concat0", 
      "attrs": {
        "dim": "1", 
        "num_args": "2"
      }, 
      "inputs": [[77, 0, 0], [78, 0, 0]]
    }, 
    {
      "op": "BlockGrad", 
      "name": "blockgrad0", 
      "inputs": [[79, 0, 0]]
    }, 
    {
      "op": "broadcast_add", 
      "name": "source_pos_embed__add", 
      "inputs": [[67, 0, 0], [80, 0, 0]]
    }, 
    {
      "op": "Dropout", 
      "name": "dropout0", 
      "attrs": {"p": "0.1"}, 
      "inputs": [[81, 0, 0]]
    }, 
    {
      "op": "null", 
      "name": "encoder_transformer_0_att_self_pre_norm_gamma", 
      "attrs": {
        "__dtype__": "0", 
        "__init__": "[\"constant\", {\"value\": 1.0}]", 
        "__lr_mult__": "1.0", 
        "__storage_type__": "0", 
        "__wd_mult__": "1.0"
      }, 
      "inputs": []
    }, 
    {
      "op": "null", 
      "name": "encoder_transformer_0_att_self_pre_norm_beta", 
      "attrs": {
        "__dtype__": "0", 
        "__init__": "[\"constant\", {\"value\": 0.0}]", 
        "__lr_mult__": "1.0", 
        "__storage_type__": "0", 
        "__wd_mult__": "1.0"
      }, 
      "inputs": []
    }, 
    {
      "op": "LayerNorm", 
      "name": "encoder_transformer_0_att_self_pre_normlayernorm0", 
      "attrs": {
        "axis": "-1", 
        "eps": "1e-06", 
        "output_mean_var": "False"
      }, 
      "inputs": [[82, 0, 0], [83, 0, 0], [84, 0, 0]]
    }, 
    {
      "op": "null", 
      "name": "encoder_transformer_0_att_self_i2h_weight", 
      "attrs": {
        "__dtype__": "0", 
        "__lr_mult__": "1.0", 
        "__shape__": "(1536, 0)", 
        "__storage_type__": "0", 
        "__wd_mult__": "1.0"
      }, 
      "inputs": []
    }, 
    {
      "op": "FullyConnected", 
      "name": "encoder_transformer_0_att_self_i2h_fwd", 
      "attrs": {
        "flatten": "False", 
        "no_bias": "True", 
        "num_hidden": "1536"
      }, 
      "inputs": [[85, 0, 0], [86, 0, 0]]
    }, 
    {
      "op": "SliceChannel", 
      "name": "encoder_transformer_0_att_self_split0", 
      "attrs": {
        "axis": "2", 
        "num_outputs": "3"
      }, 
      "inputs": [[87, 0, 0]]
    }, 
    {
      "op": "_mul_scalar", 
      "name": "encoder_transformer_0_att_self__mulscalar0", 
      "attrs": {"scalar": "0.125"}, 
      "inputs": [[88, 0, 0]]
    }, 
    {
      "op": "Reshape", 
      "name": "encoder_transformer_0_att_self_reshape0", 
      "attrs": {"shape": "(0, -1, 8, 64)"}, 
      "inputs": [[89, 0, 0]]
    }, 
    {
      "op": "transpose", 
      "name": "encoder_transformer_0_att_self_transpose0", 
      "attrs": {"axes": "(0, 2, 1, 3)"}, 
      "inputs": [[90, 0, 0]]
    }, 
    {
      "op": "Reshape", 
      "name": "encoder_transformer_0_att_self_reshape1", 
      "attrs": {"shape": "(-3, -1, 64)"}, 
      "inputs": [[91, 0, 0]]
    }, 
    {
      "op": "Reshape", 
      "name": "encoder_transformer_0_att_self_reshape2", 
      "attrs": {"shape": "(0, -1, 8, 64)"}, 
      "inputs": [[88, 1, 0]]
    }, 
    {
      "op": "transpose", 
      "name": "encoder_transformer_0_att_self_transpose1", 
      "attrs": {"axes": "(0, 2, 1, 3)"}, 
      "inputs": [[93, 0, 0]]
    }, 
    {
      "op": "Reshape", 
      "name": "encoder_transformer_0_att_self_reshape3", 
      "attrs": {"shape": "(-3, -1, 64)"}, 
      "inputs": [[94, 0, 0]]
    }, 
    {
      "op": "batch_dot", 
      "name": "encoder_transformer_0_att_self_dot_attbatch_dot0", 
      "attrs": {"transpose_b": "True"}, 
      "inputs": [[92, 0, 0], [95, 0, 0]]
    }, 
    {
      "op": "SliceChannel", 
      "name": "split0", 
      "attrs": {
        "axis": "2", 
        "num_outputs": "1", 
        "squeeze_axis": "True"
      }, 
      "inputs": [[63, 0, 0]]
    }, 
    {
      "op": "_not_equal_scalar", 
      "name": "_not_equal_scalar0", 
      "attrs": {"scalar": "0"}, 
      "inputs": [[97, 0, 0]]
    }, 
    {
      "op": "sum", 
      "name": "sum0", 
      "attrs": {"axis": "1"}, 
      "inputs": [[98, 0, 0]]
    }, 
    {
      "op": "zeros_like", 
      "name": "encoder_transformer_biaszeros_like0", 
      "inputs": [[99, 0, 0]]
    }, 
    {
      "op": "Reshape", 
      "name": "encoder_transformer_biasreshape0", 
      "attrs": {"shape": "(-1, 1)"}, 
      "inputs": [[100, 0, 0]]
    }, 
    {
      "op": "broadcast_like", 
      "name": "encoder_transformer_biasbroadcast_like0", 
      "attrs": {
        "lhs_axes": "(1,)", 
        "rhs_axes": "(1,)"
      }, 
      "inputs": [[101, 0, 0], [82, 0, 0]]
    }, 
    {
      "op": "SequenceMask", 
      "name": "encoder_transformer_biassequencemask0", 
      "attrs": {
        "axis": "1", 
        "use_sequence_length": "True", 
        "value": "-99999999.0"
      }, 
      "inputs": [[102, 0, 0], [99, 0, 0]]
    }, 
    {
      "op": "expand_dims", 
      "name": "encoder_transformer_biasexpand_dims0", 
      "attrs": {"axis": "1"}, 
      "inputs": [[103, 0, 0]]
    }, 
    {
      "op": "broadcast_to", 
      "name": "encoder_transformer_biasbroadcast_to0", 
      "attrs": {"shape": "[0, 8, 0]"}, 
      "inputs": [[104, 0, 0]]
    }, 
    {
      "op": "Reshape", 
      "name": "encoder_transformer_biasreshape1", 
      "attrs": {"shape": "[-3, 0]"}, 
      "inputs": [[105, 0, 0]]
    }, 
    {
      "op": "BlockGrad", 
      "name": "encoder_transformer_biasblockgrad0", 
      "inputs": [[106, 0, 0]]
    }, 
    {
      "op": "expand_dims", 
      "name": "expand_dims2", 
      "attrs": {"axis": "1"}, 
      "inputs": [[107, 0, 0]]
    }, 
    {
      "op": "broadcast_add", 
      "name": "encoder_transformer_0_att_self_dot_attbroadcast_add0", 
      "inputs": [[96, 0, 0], [108, 0, 0]]
    }, 
    {
      "op": "softmax", 
      "name": "encoder_transformer_0_att_self_dot_attsoftmax0", 
      "attrs": {"axis": "-1"}, 
      "inputs": [[109, 0, 0]]
    }, 
    {
      "op": "Dropout", 
      "name": "encoder_transformer_0_att_self_dot_attdropout0", 
      "attrs": {"p": "0.1"}, 
      "inputs": [[110, 0, 0]]
    }, 
    {
      "op": "Reshape", 
      "name": "encoder_transformer_0_att_self_reshape4", 
      "attrs": {"shape": "(0, -1, 8, 64)"}, 
      "inputs": [[88, 2, 0]]
    }, 
    {
      "op": "transpose", 
      "name": "encoder_transformer_0_att_self_transpose2", 
      "attrs": {"axes": "(0, 2, 1, 3)"}, 
      "inputs": [[112, 0, 0]]
    }, 
    {
      "op": "Reshape", 
      "name": "encoder_transformer_0_att_self_reshape5", 
      "attrs": {"shape": "(-3, -1, 64)"}, 
      "inputs": [[113, 0, 0]]
    }, 
    {
      "op": "batch_dot", 
      "name": "encoder_transformer_0_att_self_dot_attbatch_dot1", 
      "inputs": [[111, 0, 0], [114, 0, 0]]
    }, 
    {
      "op": "Reshape", 
      "name": "encoder_transformer_0_att_self_reshape6", 
      "attrs": {"shape": "(-4, -1, 8, 0, 64)"}, 
      "inputs": [[115, 0, 0]]
    }, 
    {
      "op": "transpose", 
      "name": "encoder_transformer_0_att_self_transpose3", 
      "attrs": {"axes": "(0, 2, 1, 3)"}, 
      "inputs": [[116, 0, 0]]
    }, 
    {
      "op": "Reshape", 
      "name": "encoder_transformer_0_att_self_reshape7", 
      "attrs": {"shape": "(-1, 0, 512)"}, 
      "inputs": [[117, 0, 0]]
    }, 
    {
      "op": "null", 
      "name": "encoder_transformer_0_att_self_h2o_weight", 
      "attrs": {
        "__dtype__": "0", 
        "__lr_mult__": "1.0", 
        "__shape__": "(512, 0)", 
        "__storage_type__": "0", 
        "__wd_mult__": "1.0"
      }, 
      "inputs": []
    }, 
    {
      "op": "FullyConnected", 
      "name": "encoder_transformer_0_att_self_h2o_fwd", 
      "attrs": {
        "flatten": "False", 
        "no_bias": "True", 
        "num_hidden": "512"
      }, 
      "inputs": [[118, 0, 0], [119, 0, 0]]
    }, 
    {
      "op": "Dropout", 
      "name": "encoder_transformer_0_att_self_post_dropout0", 
      "attrs": {"p": "0.1"}, 
      "inputs": [[120, 0, 0]]
    }, 
    {
      "op": "elemwise_add", 
      "name": "encoder_transformer_0_att_self_post__plus0", 
      "inputs": [[121, 0, 0], [82, 0, 0]]
    }, 
    {
      "op": "null", 
      "name": "encoder_transformer_0_ff_pre_norm_gamma", 
      "attrs": {
        "__dtype__": "0", 
        "__init__": "[\"constant\", {\"value\": 1.0}]", 
        "__lr_mult__": "1.0", 
        "__storage_type__": "0", 
        "__wd_mult__": "1.0"
      }, 
      "inputs": []
    }, 
    {
      "op": "null", 
      "name": "encoder_transformer_0_ff_pre_norm_beta", 
      "attrs": {
        "__dtype__": "0", 
        "__init__": "[\"constant\", {\"value\": 0.0}]", 
        "__lr_mult__": "1.0", 
        "__storage_type__": "0", 
        "__wd_mult__": "1.0"
      }, 
      "inputs": []
    }, 
    {
      "op": "LayerNorm", 
      "name": "encoder_transformer_0_ff_pre_normlayernorm0", 
      "attrs": {
        "axis": "-1", 
        "eps": "1e-06", 
        "output_mean_var": "False"
      }, 
      "inputs": [[122, 0, 0], [123, 0, 0], [124, 0, 0]]
    }, 
    {
      "op": "null", 
      "name": "encoder_transformer_0_ff_i2h_weight", 
      "attrs": {
        "__dtype__": "0", 
        "__lr_mult__": "1.0", 
        "__shape__": "(256, 0)", 
        "__storage_type__": "0", 
        "__wd_mult__": "1.0"
      }, 
      "inputs": []
    }, 
    {
      "op": "null", 
      "name": "encoder_transformer_0_ff_i2h_bias", 
      "attrs": {
        "__dtype__": "0", 
        "__init__": "zeros", 
        "__lr_mult__": "1.0", 
        "__shape__": "(256,)", 
        "__storage_type__": "0", 
        "__wd_mult__": "1.0"
      }, 
      "inputs": []
    }, 
    {
      "op": "FullyConnected", 
      "name": "encoder_transformer_0_ff_i2h_fwd", 
      "attrs": {
        "flatten": "False", 
        "no_bias": "False", 
        "num_hidden": "256"
      }, 
      "inputs": [[125, 0, 0], [126, 0, 0], [127, 0, 0]]
    }, 
    {
      "op": "Activation", 
      "name": "encoder_transformer_0_ff_relu0_fwd", 
      "attrs": {"act_type": "relu"}, 
      "inputs": [[128, 0, 0]]
    }, 
    {
      "op": "Dropout", 
      "name": "encoder_transformer_0_ff_dropout0", 
      "attrs": {"p": "0.1"}, 
      "inputs": [[129, 0, 0]]
    }, 
    {
      "op": "null", 
      "name": "encoder_transformer_0_ff_h2o_weight", 
      "attrs": {
        "__dtype__": "0", 
        "__lr_mult__": "1.0", 
        "__shape__": "(512, 0)", 
        "__storage_type__": "0", 
        "__wd_mult__": "1.0"
      }, 
      "inputs": []
    }, 
    {
      "op": "null", 
      "name": "encoder_transformer_0_ff_h2o_bias", 
      "attrs": {
        "__dtype__": "0", 
        "__init__": "zeros", 
        "__lr_mult__": "1.0", 
        "__shape__": "(512,)", 
        "__storage_type__": "0", 
        "__wd_mult__": "1.0"
      }, 
      "inputs": []
    }, 
    {
      "op": "FullyConnected", 
      "name": "encoder_transformer_0_ff_h2o_fwd", 
      "attrs": {
        "flatten": "False", 
        "no_bias": "False", 
        "num_hidden": "512"
      }, 
      "inputs": [[130, 0, 0], [131, 0, 0], [132, 0, 0]]
    }, 
    {
      "op": "Dropout", 
      "name": "encoder_transformer_0_ff_post_dropout0", 
      "attrs": {"p": "0.1"}, 
      "inputs": [[133, 0, 0]]
    }, 
    {
      "op": "elemwise_add", 
      "name": "encoder_transformer_0_ff_post__plus0", 
      "inputs": [[134, 0, 0], [122, 0, 0]]
    }, 
    {
      "op": "null", 
      "name": "encoder_transformer_1_att_self_pre_norm_gamma", 
      "attrs": {
        "__dtype__": "0", 
        "__init__": "[\"constant\", {\"value\": 1.0}]", 
        "__lr_mult__": "1.0", 
        "__storage_type__": "0", 
        "__wd_mult__": "1.0"
      }, 
      "inputs": []
    }, 
    {
      "op": "null", 
      "name": "encoder_transformer_1_att_self_pre_norm_beta", 
      "attrs": {
        "__dtype__": "0", 
        "__init__": "[\"constant\", {\"value\": 0.0}]", 
        "__lr_mult__": "1.0", 
        "__storage_type__": "0", 
        "__wd_mult__": "1.0"
      }, 
      "inputs": []
    }, 
    {
      "op": "LayerNorm", 
      "name": "encoder_transformer_1_att_self_pre_normlayernorm0", 
      "attrs": {
        "axis": "-1", 
        "eps": "1e-06", 
        "output_mean_var": "False"
      }, 
      "inputs": [[135, 0, 0], [136, 0, 0], [137, 0, 0]]
    }, 
    {
      "op": "null", 
      "name": "encoder_transformer_1_att_self_i2h_weight", 
      "attrs": {
        "__dtype__": "0", 
        "__lr_mult__": "1.0", 
        "__shape__": "(1536, 0)", 
        "__storage_type__": "0", 
        "__wd_mult__": "1.0"
      }, 
      "inputs": []
    }, 
    {
      "op": "FullyConnected", 
      "name": "encoder_transformer_1_att_self_i2h_fwd", 
      "attrs": {
        "flatten": "False", 
        "no_bias": "True", 
        "num_hidden": "1536"
      }, 
      "inputs": [[138, 0, 0], [139, 0, 0]]
    }, 
    {
      "op": "SliceChannel", 
      "name": "encoder_transformer_1_att_self_split0", 
      "attrs": {
        "axis": "2", 
        "num_outputs": "3"
      }, 
      "inputs": [[140, 0, 0]]
    }, 
    {
      "op": "_mul_scalar", 
      "name": "encoder_transformer_1_att_self__mulscalar0", 
      "attrs": {"scalar": "0.125"}, 
      "inputs": [[141, 0, 0]]
    }, 
    {
      "op": "Reshape", 
      "name": "encoder_transformer_1_att_self_reshape0", 
      "attrs": {"shape": "(0, -1, 8, 64)"}, 
      "inputs": [[142, 0, 0]]
    }, 
    {
      "op": "transpose", 
      "name": "encoder_transformer_1_att_self_transpose0", 
      "attrs": {"axes": "(0, 2, 1, 3)"}, 
      "inputs": [[143, 0, 0]]
    }, 
    {
      "op": "Reshape", 
      "name": "encoder_transformer_1_att_self_reshape1", 
      "attrs": {"shape": "(-3, -1, 64)"}, 
      "inputs": [[144, 0, 0]]
    }, 
    {
      "op": "Reshape", 
      "name": "encoder_transformer_1_att_self_reshape2", 
      "attrs": {"shape": "(0, -1, 8, 64)"}, 
      "inputs": [[141, 1, 0]]
    }, 
    {
      "op": "transpose", 
      "name": "encoder_transformer_1_att_self_transpose1", 
      "attrs": {"axes": "(0, 2, 1, 3)"}, 
      "inputs": [[146, 0, 0]]
    }, 
    {
      "op": "Reshape", 
      "name": "encoder_transformer_1_att_self_reshape3", 
      "attrs": {"shape": "(-3, -1, 64)"}, 
      "inputs": [[147, 0, 0]]
    }, 
    {
      "op": "batch_dot", 
      "name": "encoder_transformer_1_att_self_dot_attbatch_dot0", 
      "attrs": {"transpose_b": "True"}, 
      "inputs": [[145, 0, 0], [148, 0, 0]]
    }, 
    {
      "op": "broadcast_add", 
      "name": "encoder_transformer_1_att_self_dot_attbroadcast_add0", 
      "inputs": [[149, 0, 0], [108, 0, 0]]
    }, 
    {
      "op": "softmax", 
      "name": "encoder_transformer_1_att_self_dot_attsoftmax0", 
      "attrs": {"axis": "-1"}, 
      "inputs": [[150, 0, 0]]
    }, 
    {
      "op": "Dropout", 
      "name": "encoder_transformer_1_att_self_dot_attdropout0", 
      "attrs": {"p": "0.1"}, 
      "inputs": [[151, 0, 0]]
    }, 
    {
      "op": "Reshape", 
      "name": "encoder_transformer_1_att_self_reshape4", 
      "attrs": {"shape": "(0, -1, 8, 64)"}, 
      "inputs": [[141, 2, 0]]
    }, 
    {
      "op": "transpose", 
      "name": "encoder_transformer_1_att_self_transpose2", 
      "attrs": {"axes": "(0, 2, 1, 3)"}, 
      "inputs": [[153, 0, 0]]
    }, 
    {
      "op": "Reshape", 
      "name": "encoder_transformer_1_att_self_reshape5", 
      "attrs": {"shape": "(-3, -1, 64)"}, 
      "inputs": [[154, 0, 0]]
    }, 
    {
      "op": "batch_dot", 
      "name": "encoder_transformer_1_att_self_dot_attbatch_dot1", 
      "inputs": [[152, 0, 0], [155, 0, 0]]
    }, 
    {
      "op": "Reshape", 
      "name": "encoder_transformer_1_att_self_reshape6", 
      "attrs": {"shape": "(-4, -1, 8, 0, 64)"}, 
      "inputs": [[156, 0, 0]]
    }, 
    {
      "op": "transpose", 
      "name": "encoder_transformer_1_att_self_transpose3", 
      "attrs": {"axes": "(0, 2, 1, 3)"}, 
      "inputs": [[157, 0, 0]]
    }, 
    {
      "op": "Reshape", 
      "name": "encoder_transformer_1_att_self_reshape7", 
      "attrs": {"shape": "(-1, 0, 512)"}, 
      "inputs": [[158, 0, 0]]
    }, 
    {
      "op": "null", 
      "name": "encoder_transformer_1_att_self_h2o_weight", 
      "attrs": {
        "__dtype__": "0", 
        "__lr_mult__": "1.0", 
        "__shape__": "(512, 0)", 
        "__storage_type__": "0", 
        "__wd_mult__": "1.0"
      }, 
      "inputs": []
    }, 
    {
      "op": "FullyConnected", 
      "name": "encoder_transformer_1_att_self_h2o_fwd", 
      "attrs": {
        "flatten": "False", 
        "no_bias": "True", 
        "num_hidden": "512"
      }, 
      "inputs": [[159, 0, 0], [160, 0, 0]]
    }, 
    {
      "op": "Dropout", 
      "name": "encoder_transformer_1_att_self_post_dropout0", 
      "attrs": {"p": "0.1"}, 
      "inputs": [[161, 0, 0]]
    }, 
    {
      "op": "elemwise_add", 
      "name": "encoder_transformer_1_att_self_post__plus0", 
      "inputs": [[162, 0, 0], [135, 0, 0]]
    }, 
    {
      "op": "null", 
      "name": "encoder_transformer_1_ff_pre_norm_gamma", 
      "attrs": {
        "__dtype__": "0", 
        "__init__": "[\"constant\", {\"value\": 1.0}]", 
        "__lr_mult__": "1.0", 
        "__storage_type__": "0", 
        "__wd_mult__": "1.0"
      }, 
      "inputs": []
    }, 
    {
      "op": "null", 
      "name": "encoder_transformer_1_ff_pre_norm_beta", 
      "attrs": {
        "__dtype__": "0", 
        "__init__": "[\"constant\", {\"value\": 0.0}]", 
        "__lr_mult__": "1.0", 
        "__storage_type__": "0", 
        "__wd_mult__": "1.0"
      }, 
      "inputs": []
    }, 
    {
      "op": "LayerNorm", 
      "name": "encoder_transformer_1_ff_pre_normlayernorm0", 
      "attrs": {
        "axis": "-1", 
        "eps": "1e-06", 
        "output_mean_var": "False"
      }, 
      "inputs": [[163, 0, 0], [164, 0, 0], [165, 0, 0]]
    }, 
    {
      "op": "null", 
      "name": "encoder_transformer_1_ff_i2h_weight", 
      "attrs": {
        "__dtype__": "0", 
        "__lr_mult__": "1.0", 
        "__shape__": "(256, 0)", 
        "__storage_type__": "0", 
        "__wd_mult__": "1.0"
      }, 
      "inputs": []
    }, 
    {
      "op": "null", 
      "name": "encoder_transformer_1_ff_i2h_bias", 
      "attrs": {
        "__dtype__": "0", 
        "__init__": "zeros", 
        "__lr_mult__": "1.0", 
        "__shape__": "(256,)", 
        "__storage_type__": "0", 
        "__wd_mult__": "1.0"
      }, 
      "inputs": []
    }, 
    {
      "op": "FullyConnected", 
      "name": "encoder_transformer_1_ff_i2h_fwd", 
      "attrs": {
        "flatten": "False", 
        "no_bias": "False", 
        "num_hidden": "256"
      }, 
      "inputs": [[166, 0, 0], [167, 0, 0], [168, 0, 0]]
    }, 
    {
      "op": "Activation", 
      "name": "encoder_transformer_1_ff_relu0_fwd", 
      "attrs": {"act_type": "relu"}, 
      "inputs": [[169, 0, 0]]
    }, 
    {
      "op": "Dropout", 
      "name": "encoder_transformer_1_ff_dropout0", 
      "attrs": {"p": "0.1"}, 
      "inputs": [[170, 0, 0]]
    }, 
    {
      "op": "null", 
      "name": "encoder_transformer_1_ff_h2o_weight", 
      "attrs": {
        "__dtype__": "0", 
        "__lr_mult__": "1.0", 
        "__shape__": "(512, 0)", 
        "__storage_type__": "0", 
        "__wd_mult__": "1.0"
      }, 
      "inputs": []
    }, 
    {
      "op": "null", 
      "name": "encoder_transformer_1_ff_h2o_bias", 
      "attrs": {
        "__dtype__": "0", 
        "__init__": "zeros", 
        "__lr_mult__": "1.0", 
        "__shape__": "(512,)", 
        "__storage_type__": "0", 
        "__wd_mult__": "1.0"
      }, 
      "inputs": []
    }, 
    {
      "op": "FullyConnected", 
      "name": "encoder_transformer_1_ff_h2o_fwd", 
      "attrs": {
        "flatten": "False", 
        "no_bias": "False", 
        "num_hidden": "512"
      }, 
      "inputs": [[171, 0, 0], [172, 0, 0], [173, 0, 0]]
    }, 
    {
      "op": "Dropout", 
      "name": "encoder_transformer_1_ff_post_dropout0", 
      "attrs": {"p": "0.1"}, 
      "inputs": [[174, 0, 0]]
    }, 
    {
      "op": "elemwise_add", 
      "name": "encoder_transformer_1_ff_post__plus0", 
      "inputs": [[175, 0, 0], [163, 0, 0]]
    }, 
    {
      "op": "null", 
      "name": "encoder_transformer_2_att_self_pre_norm_gamma", 
      "attrs": {
        "__dtype__": "0", 
        "__init__": "[\"constant\", {\"value\": 1.0}]", 
        "__lr_mult__": "1.0", 
        "__storage_type__": "0", 
        "__wd_mult__": "1.0"
      }, 
      "inputs": []
    }, 
    {
      "op": "null", 
      "name": "encoder_transformer_2_att_self_pre_norm_beta", 
      "attrs": {
        "__dtype__": "0", 
        "__init__": "[\"constant\", {\"value\": 0.0}]", 
        "__lr_mult__": "1.0", 
        "__storage_type__": "0", 
        "__wd_mult__": "1.0"
      }, 
      "inputs": []
    }, 
    {
      "op": "LayerNorm", 
      "name": "encoder_transformer_2_att_self_pre_normlayernorm0", 
      "attrs": {
        "axis": "-1", 
        "eps": "1e-06", 
        "output_mean_var": "False"
      }, 
      "inputs": [[176, 0, 0], [177, 0, 0], [178, 0, 0]]
    }, 
    {
      "op": "null", 
      "name": "encoder_transformer_2_att_self_i2h_weight", 
      "attrs": {
        "__dtype__": "0", 
        "__lr_mult__": "1.0", 
        "__shape__": "(1536, 0)", 
        "__storage_type__": "0", 
        "__wd_mult__": "1.0"
      }, 
      "inputs": []
    }, 
    {
      "op": "FullyConnected", 
      "name": "encoder_transformer_2_att_self_i2h_fwd", 
      "attrs": {
        "flatten": "False", 
        "no_bias": "True", 
        "num_hidden": "1536"
      }, 
      "inputs": [[179, 0, 0], [180, 0, 0]]
    }, 
    {
      "op": "SliceChannel", 
      "name": "encoder_transformer_2_att_self_split0", 
      "attrs": {
        "axis": "2", 
        "num_outputs": "3"
      }, 
      "inputs": [[181, 0, 0]]
    }, 
    {
      "op": "_mul_scalar", 
      "name": "encoder_transformer_2_att_self__mulscalar0", 
      "attrs": {"scalar": "0.125"}, 
      "inputs": [[182, 0, 0]]
    }, 
    {
      "op": "Reshape", 
      "name": "encoder_transformer_2_att_self_reshape0", 
      "attrs": {"shape": "(0, -1, 8, 64)"}, 
      "inputs": [[183, 0, 0]]
    }, 
    {
      "op": "transpose", 
      "name": "encoder_transformer_2_att_self_transpose0", 
      "attrs": {"axes": "(0, 2, 1, 3)"}, 
      "inputs": [[184, 0, 0]]
    }, 
    {
      "op": "Reshape", 
      "name": "encoder_transformer_2_att_self_reshape1", 
      "attrs": {"shape": "(-3, -1, 64)"}, 
      "inputs": [[185, 0, 0]]
    }, 
    {
      "op": "Reshape", 
      "name": "encoder_transformer_2_att_self_reshape2", 
      "attrs": {"shape": "(0, -1, 8, 64)"}, 
      "inputs": [[182, 1, 0]]
    }, 
    {
      "op": "transpose", 
      "name": "encoder_transformer_2_att_self_transpose1", 
      "attrs": {"axes": "(0, 2, 1, 3)"}, 
      "inputs": [[187, 0, 0]]
    }, 
    {
      "op": "Reshape", 
      "name": "encoder_transformer_2_att_self_reshape3", 
      "attrs": {"shape": "(-3, -1, 64)"}, 
      "inputs": [[188, 0, 0]]
    }, 
    {
      "op": "batch_dot", 
      "name": "encoder_transformer_2_att_self_dot_attbatch_dot0", 
      "attrs": {"transpose_b": "True"}, 
      "inputs": [[186, 0, 0], [189, 0, 0]]
    }, 
    {
      "op": "broadcast_add", 
      "name": "encoder_transformer_2_att_self_dot_attbroadcast_add0", 
      "inputs": [[190, 0, 0], [108, 0, 0]]
    }, 
    {
      "op": "softmax", 
      "name": "encoder_transformer_2_att_self_dot_attsoftmax0", 
      "attrs": {"axis": "-1"}, 
      "inputs": [[191, 0, 0]]
    }, 
    {
      "op": "Dropout", 
      "name": "encoder_transformer_2_att_self_dot_attdropout0", 
      "attrs": {"p": "0.1"}, 
      "inputs": [[192, 0, 0]]
    }, 
    {
      "op": "Reshape", 
      "name": "encoder_transformer_2_att_self_reshape4", 
      "attrs": {"shape": "(0, -1, 8, 64)"}, 
      "inputs": [[182, 2, 0]]
    }, 
    {
      "op": "transpose", 
      "name": "encoder_transformer_2_att_self_transpose2", 
      "attrs": {"axes": "(0, 2, 1, 3)"}, 
      "inputs": [[194, 0, 0]]
    }, 
    {
      "op": "Reshape", 
      "name": "encoder_transformer_2_att_self_reshape5", 
      "attrs": {"shape": "(-3, -1, 64)"}, 
      "inputs": [[195, 0, 0]]
    }, 
    {
      "op": "batch_dot", 
      "name": "encoder_transformer_2_att_self_dot_attbatch_dot1", 
      "inputs": [[193, 0, 0], [196, 0, 0]]
    }, 
    {
      "op": "Reshape", 
      "name": "encoder_transformer_2_att_self_reshape6", 
      "attrs": {"shape": "(-4, -1, 8, 0, 64)"}, 
      "inputs": [[197, 0, 0]]
    }, 
    {
      "op": "transpose", 
      "name": "encoder_transformer_2_att_self_transpose3", 
      "attrs": {"axes": "(0, 2, 1, 3)"}, 
      "inputs": [[198, 0, 0]]
    }, 
    {
      "op": "Reshape", 
      "name": "encoder_transformer_2_att_self_reshape7", 
      "attrs": {"shape": "(-1, 0, 512)"}, 
      "inputs": [[199, 0, 0]]
    }, 
    {
      "op": "null", 
      "name": "encoder_transformer_2_att_self_h2o_weight", 
      "attrs": {
        "__dtype__": "0", 
        "__lr_mult__": "1.0", 
        "__shape__": "(512, 0)", 
        "__storage_type__": "0", 
        "__wd_mult__": "1.0"
      }, 
      "inputs": []
    }, 
    {
      "op": "FullyConnected", 
      "name": "encoder_transformer_2_att_self_h2o_fwd", 
      "attrs": {
        "flatten": "False", 
        "no_bias": "True", 
        "num_hidden": "512"
      }, 
      "inputs": [[200, 0, 0], [201, 0, 0]]
    }, 
    {
      "op": "Dropout", 
      "name": "encoder_transformer_2_att_self_post_dropout0", 
      "attrs": {"p": "0.1"}, 
      "inputs": [[202, 0, 0]]
    }, 
    {
      "op": "elemwise_add", 
      "name": "encoder_transformer_2_att_self_post__plus0", 
      "inputs": [[203, 0, 0], [176, 0, 0]]
    }, 
    {
      "op": "null", 
      "name": "encoder_transformer_2_ff_pre_norm_gamma", 
      "attrs": {
        "__dtype__": "0", 
        "__init__": "[\"constant\", {\"value\": 1.0}]", 
        "__lr_mult__": "1.0", 
        "__storage_type__": "0", 
        "__wd_mult__": "1.0"
      }, 
      "inputs": []
    }, 
    {
      "op": "null", 
      "name": "encoder_transformer_2_ff_pre_norm_beta", 
      "attrs": {
        "__dtype__": "0", 
        "__init__": "[\"constant\", {\"value\": 0.0}]", 
        "__lr_mult__": "1.0", 
        "__storage_type__": "0", 
        "__wd_mult__": "1.0"
      }, 
      "inputs": []
    }, 
    {
      "op": "LayerNorm", 
      "name": "encoder_transformer_2_ff_pre_normlayernorm0", 
      "attrs": {
        "axis": "-1", 
        "eps": "1e-06", 
        "output_mean_var": "False"
      }, 
      "inputs": [[204, 0, 0], [205, 0, 0], [206, 0, 0]]
    }, 
    {
      "op": "null", 
      "name": "encoder_transformer_2_ff_i2h_weight", 
      "attrs": {
        "__dtype__": "0", 
        "__lr_mult__": "1.0", 
        "__shape__": "(256, 0)", 
        "__storage_type__": "0", 
        "__wd_mult__": "1.0"
      }, 
      "inputs": []
    }, 
    {
      "op": "null", 
      "name": "encoder_transformer_2_ff_i2h_bias", 
      "attrs": {
        "__dtype__": "0", 
        "__init__": "zeros", 
        "__lr_mult__": "1.0", 
        "__shape__": "(256,)", 
        "__storage_type__": "0", 
        "__wd_mult__": "1.0"
      }, 
      "inputs": []
    }, 
    {
      "op": "FullyConnected", 
      "name": "encoder_transformer_2_ff_i2h_fwd", 
      "attrs": {
        "flatten": "False", 
        "no_bias": "False", 
        "num_hidden": "256"
      }, 
      "inputs": [[207, 0, 0], [208, 0, 0], [209, 0, 0]]
    }, 
    {
      "op": "Activation", 
      "name": "encoder_transformer_2_ff_relu0_fwd", 
      "attrs": {"act_type": "relu"}, 
      "inputs": [[210, 0, 0]]
    }, 
    {
      "op": "Dropout", 
      "name": "encoder_transformer_2_ff_dropout0", 
      "attrs": {"p": "0.1"}, 
      "inputs": [[211, 0, 0]]
    }, 
    {
      "op": "null", 
      "name": "encoder_transformer_2_ff_h2o_weight", 
      "attrs": {
        "__dtype__": "0", 
        "__lr_mult__": "1.0", 
        "__shape__": "(512, 0)", 
        "__storage_type__": "0", 
        "__wd_mult__": "1.0"
      }, 
      "inputs": []
    }, 
    {
      "op": "null", 
      "name": "encoder_transformer_2_ff_h2o_bias", 
      "attrs": {
        "__dtype__": "0", 
        "__init__": "zeros", 
        "__lr_mult__": "1.0", 
        "__shape__": "(512,)", 
        "__storage_type__": "0", 
        "__wd_mult__": "1.0"
      }, 
      "inputs": []
    }, 
    {
      "op": "FullyConnected", 
      "name": "encoder_transformer_2_ff_h2o_fwd", 
      "attrs": {
        "flatten": "False", 
        "no_bias": "False", 
        "num_hidden": "512"
      }, 
      "inputs": [[212, 0, 0], [213, 0, 0], [214, 0, 0]]
    }, 
    {
      "op": "Dropout", 
      "name": "encoder_transformer_2_ff_post_dropout0", 
      "attrs": {"p": "0.1"}, 
      "inputs": [[215, 0, 0]]
    }, 
    {
      "op": "elemwise_add", 
      "name": "encoder_transformer_2_ff_post__plus0", 
      "inputs": [[216, 0, 0], [204, 0, 0]]
    }, 
    {
      "op": "null", 
      "name": "encoder_transformer_3_att_self_pre_norm_gamma", 
      "attrs": {
        "__dtype__": "0", 
        "__init__": "[\"constant\", {\"value\": 1.0}]", 
        "__lr_mult__": "1.0", 
        "__storage_type__": "0", 
        "__wd_mult__": "1.0"
      }, 
      "inputs": []
    }, 
    {
      "op": "null", 
      "name": "encoder_transformer_3_att_self_pre_norm_beta", 
      "attrs": {
        "__dtype__": "0", 
        "__init__": "[\"constant\", {\"value\": 0.0}]", 
        "__lr_mult__": "1.0", 
        "__storage_type__": "0", 
        "__wd_mult__": "1.0"
      }, 
      "inputs": []
    }, 
    {
      "op": "LayerNorm", 
      "name": "encoder_transformer_3_att_self_pre_normlayernorm0", 
      "attrs": {
        "axis": "-1", 
        "eps": "1e-06", 
        "output_mean_var": "False"
      }, 
      "inputs": [[217, 0, 0], [218, 0, 0], [219, 0, 0]]
    }, 
    {
      "op": "null", 
      "name": "encoder_transformer_3_att_self_i2h_weight", 
      "attrs": {
        "__dtype__": "0", 
        "__lr_mult__": "1.0", 
        "__shape__": "(1536, 0)", 
        "__storage_type__": "0", 
        "__wd_mult__": "1.0"
      }, 
      "inputs": []
    }, 
    {
      "op": "FullyConnected", 
      "name": "encoder_transformer_3_att_self_i2h_fwd", 
      "attrs": {
        "flatten": "False", 
        "no_bias": "True", 
        "num_hidden": "1536"
      }, 
      "inputs": [[220, 0, 0], [221, 0, 0]]
    }, 
    {
      "op": "SliceChannel", 
      "name": "encoder_transformer_3_att_self_split0", 
      "attrs": {
        "axis": "2", 
        "num_outputs": "3"
      }, 
      "inputs": [[222, 0, 0]]
    }, 
    {
      "op": "_mul_scalar", 
      "name": "encoder_transformer_3_att_self__mulscalar0", 
      "attrs": {"scalar": "0.125"}, 
      "inputs": [[223, 0, 0]]
    }, 
    {
      "op": "Reshape", 
      "name": "encoder_transformer_3_att_self_reshape0", 
      "attrs": {"shape": "(0, -1, 8, 64)"}, 
      "inputs": [[224, 0, 0]]
    }, 
    {
      "op": "transpose", 
      "name": "encoder_transformer_3_att_self_transpose0", 
      "attrs": {"axes": "(0, 2, 1, 3)"}, 
      "inputs": [[225, 0, 0]]
    }, 
    {
      "op": "Reshape", 
      "name": "encoder_transformer_3_att_self_reshape1", 
      "attrs": {"shape": "(-3, -1, 64)"}, 
      "inputs": [[226, 0, 0]]
    }, 
    {
      "op": "Reshape", 
      "name": "encoder_transformer_3_att_self_reshape2", 
      "attrs": {"shape": "(0, -1, 8, 64)"}, 
      "inputs": [[223, 1, 0]]
    }, 
    {
      "op": "transpose", 
      "name": "encoder_transformer_3_att_self_transpose1", 
      "attrs": {"axes": "(0, 2, 1, 3)"}, 
      "inputs": [[228, 0, 0]]
    }, 
    {
      "op": "Reshape", 
      "name": "encoder_transformer_3_att_self_reshape3", 
      "attrs": {"shape": "(-3, -1, 64)"}, 
      "inputs": [[229, 0, 0]]
    }, 
    {
      "op": "batch_dot", 
      "name": "encoder_transformer_3_att_self_dot_attbatch_dot0", 
      "attrs": {"transpose_b": "True"}, 
      "inputs": [[227, 0, 0], [230, 0, 0]]
    }, 
    {
      "op": "broadcast_add", 
      "name": "encoder_transformer_3_att_self_dot_attbroadcast_add0", 
      "inputs": [[231, 0, 0], [108, 0, 0]]
    }, 
    {
      "op": "softmax", 
      "name": "encoder_transformer_3_att_self_dot_attsoftmax0", 
      "attrs": {"axis": "-1"}, 
      "inputs": [[232, 0, 0]]
    }, 
    {
      "op": "Dropout", 
      "name": "encoder_transformer_3_att_self_dot_attdropout0", 
      "attrs": {"p": "0.1"}, 
      "inputs": [[233, 0, 0]]
    }, 
    {
      "op": "Reshape", 
      "name": "encoder_transformer_3_att_self_reshape4", 
      "attrs": {"shape": "(0, -1, 8, 64)"}, 
      "inputs": [[223, 2, 0]]
    }, 
    {
      "op": "transpose", 
      "name": "encoder_transformer_3_att_self_transpose2", 
      "attrs": {"axes": "(0, 2, 1, 3)"}, 
      "inputs": [[235, 0, 0]]
    }, 
    {
      "op": "Reshape", 
      "name": "encoder_transformer_3_att_self_reshape5", 
      "attrs": {"shape": "(-3, -1, 64)"}, 
      "inputs": [[236, 0, 0]]
    }, 
    {
      "op": "batch_dot", 
      "name": "encoder_transformer_3_att_self_dot_attbatch_dot1", 
      "inputs": [[234, 0, 0], [237, 0, 0]]
    }, 
    {
      "op": "Reshape", 
      "name": "encoder_transformer_3_att_self_reshape6", 
      "attrs": {"shape": "(-4, -1, 8, 0, 64)"}, 
      "inputs": [[238, 0, 0]]
    }, 
    {
      "op": "transpose", 
      "name": "encoder_transformer_3_att_self_transpose3", 
      "attrs": {"axes": "(0, 2, 1, 3)"}, 
      "inputs": [[239, 0, 0]]
    }, 
    {
      "op": "Reshape", 
      "name": "encoder_transformer_3_att_self_reshape7", 
      "attrs": {"shape": "(-1, 0, 512)"}, 
      "inputs": [[240, 0, 0]]
    }, 
    {
      "op": "null", 
      "name": "encoder_transformer_3_att_self_h2o_weight", 
      "attrs": {
        "__dtype__": "0", 
        "__lr_mult__": "1.0", 
        "__shape__": "(512, 0)", 
        "__storage_type__": "0", 
        "__wd_mult__": "1.0"
      }, 
      "inputs": []
    }, 
    {
      "op": "FullyConnected", 
      "name": "encoder_transformer_3_att_self_h2o_fwd", 
      "attrs": {
        "flatten": "False", 
        "no_bias": "True", 
        "num_hidden": "512"
      }, 
      "inputs": [[241, 0, 0], [242, 0, 0]]
    }, 
    {
      "op": "Dropout", 
      "name": "encoder_transformer_3_att_self_post_dropout0", 
      "attrs": {"p": "0.1"}, 
      "inputs": [[243, 0, 0]]
    }, 
    {
      "op": "elemwise_add", 
      "name": "encoder_transformer_3_att_self_post__plus0", 
      "inputs": [[244, 0, 0], [217, 0, 0]]
    }, 
    {
      "op": "null", 
      "name": "encoder_transformer_3_ff_pre_norm_gamma", 
      "attrs": {
        "__dtype__": "0", 
        "__init__": "[\"constant\", {\"value\": 1.0}]", 
        "__lr_mult__": "1.0", 
        "__storage_type__": "0", 
        "__wd_mult__": "1.0"
      }, 
      "inputs": []
    }, 
    {
      "op": "null", 
      "name": "encoder_transformer_3_ff_pre_norm_beta", 
      "attrs": {
        "__dtype__": "0", 
        "__init__": "[\"constant\", {\"value\": 0.0}]", 
        "__lr_mult__": "1.0", 
        "__storage_type__": "0", 
        "__wd_mult__": "1.0"
      }, 
      "inputs": []
    }, 
    {
      "op": "LayerNorm", 
      "name": "encoder_transformer_3_ff_pre_normlayernorm0", 
      "attrs": {
        "axis": "-1", 
        "eps": "1e-06", 
        "output_mean_var": "False"
      }, 
      "inputs": [[245, 0, 0], [246, 0, 0], [247, 0, 0]]
    }, 
    {
      "op": "null", 
      "name": "encoder_transformer_3_ff_i2h_weight", 
      "attrs": {
        "__dtype__": "0", 
        "__lr_mult__": "1.0", 
        "__shape__": "(256, 0)", 
        "__storage_type__": "0", 
        "__wd_mult__": "1.0"
      }, 
      "inputs": []
    }, 
    {
      "op": "null", 
      "name": "encoder_transformer_3_ff_i2h_bias", 
      "attrs": {
        "__dtype__": "0", 
        "__init__": "zeros", 
        "__lr_mult__": "1.0", 
        "__shape__": "(256,)", 
        "__storage_type__": "0", 
        "__wd_mult__": "1.0"
      }, 
      "inputs": []
    }, 
    {
      "op": "FullyConnected", 
      "name": "encoder_transformer_3_ff_i2h_fwd", 
      "attrs": {
        "flatten": "False", 
        "no_bias": "False", 
        "num_hidden": "256"
      }, 
      "inputs": [[248, 0, 0], [249, 0, 0], [250, 0, 0]]
    }, 
    {
      "op": "Activation", 
      "name": "encoder_transformer_3_ff_relu0_fwd", 
      "attrs": {"act_type": "relu"}, 
      "inputs": [[251, 0, 0]]
    }, 
    {
      "op": "Dropout", 
      "name": "encoder_transformer_3_ff_dropout0", 
      "attrs": {"p": "0.1"}, 
      "inputs": [[252, 0, 0]]
    }, 
    {
      "op": "null", 
      "name": "encoder_transformer_3_ff_h2o_weight", 
      "attrs": {
        "__dtype__": "0", 
        "__lr_mult__": "1.0", 
        "__shape__": "(512, 0)", 
        "__storage_type__": "0", 
        "__wd_mult__": "1.0"
      }, 
      "inputs": []
    }, 
    {
      "op": "null", 
      "name": "encoder_transformer_3_ff_h2o_bias", 
      "attrs": {
        "__dtype__": "0", 
        "__init__": "zeros", 
        "__lr_mult__": "1.0", 
        "__shape__": "(512,)", 
        "__storage_type__": "0", 
        "__wd_mult__": "1.0"
      }, 
      "inputs": []
    }, 
    {
      "op": "FullyConnected", 
      "name": "encoder_transformer_3_ff_h2o_fwd", 
      "attrs": {
        "flatten": "False", 
        "no_bias": "False", 
        "num_hidden": "512"
      }, 
      "inputs": [[253, 0, 0], [254, 0, 0], [255, 0, 0]]
    }, 
    {
      "op": "Dropout", 
      "name": "encoder_transformer_3_ff_post_dropout0", 
      "attrs": {"p": "0.1"}, 
      "inputs": [[256, 0, 0]]
    }, 
    {
      "op": "elemwise_add", 
      "name": "encoder_transformer_3_ff_post__plus0", 
      "inputs": [[257, 0, 0], [245, 0, 0]]
    }, 
    {
      "op": "null", 
      "name": "encoder_transformer_4_att_self_pre_norm_gamma", 
      "attrs": {
        "__dtype__": "0", 
        "__init__": "[\"constant\", {\"value\": 1.0}]", 
        "__lr_mult__": "1.0", 
        "__storage_type__": "0", 
        "__wd_mult__": "1.0"
      }, 
      "inputs": []
    }, 
    {
      "op": "null", 
      "name": "encoder_transformer_4_att_self_pre_norm_beta", 
      "attrs": {
        "__dtype__": "0", 
        "__init__": "[\"constant\", {\"value\": 0.0}]", 
        "__lr_mult__": "1.0", 
        "__storage_type__": "0", 
        "__wd_mult__": "1.0"
      }, 
      "inputs": []
    }, 
    {
      "op": "LayerNorm", 
      "name": "encoder_transformer_4_att_self_pre_normlayernorm0", 
      "attrs": {
        "axis": "-1", 
        "eps": "1e-06", 
        "output_mean_var": "False"
      }, 
      "inputs": [[258, 0, 0], [259, 0, 0], [260, 0, 0]]
    }, 
    {
      "op": "null", 
      "name": "encoder_transformer_4_att_self_i2h_weight", 
      "attrs": {
        "__dtype__": "0", 
        "__lr_mult__": "1.0", 
        "__shape__": "(1536, 0)", 
        "__storage_type__": "0", 
        "__wd_mult__": "1.0"
      }, 
      "inputs": []
    }, 
    {
      "op": "FullyConnected", 
      "name": "encoder_transformer_4_att_self_i2h_fwd", 
      "attrs": {
        "flatten": "False", 
        "no_bias": "True", 
        "num_hidden": "1536"
      }, 
      "inputs": [[261, 0, 0], [262, 0, 0]]
    }, 
    {
      "op": "SliceChannel", 
      "name": "encoder_transformer_4_att_self_split0", 
      "attrs": {
        "axis": "2", 
        "num_outputs": "3"
      }, 
      "inputs": [[263, 0, 0]]
    }, 
    {
      "op": "_mul_scalar", 
      "name": "encoder_transformer_4_att_self__mulscalar0", 
      "attrs": {"scalar": "0.125"}, 
      "inputs": [[264, 0, 0]]
    }, 
    {
      "op": "Reshape", 
      "name": "encoder_transformer_4_att_self_reshape0", 
      "attrs": {"shape": "(0, -1, 8, 64)"}, 
      "inputs": [[265, 0, 0]]
    }, 
    {
      "op": "transpose", 
      "name": "encoder_transformer_4_att_self_transpose0", 
      "attrs": {"axes": "(0, 2, 1, 3)"}, 
      "inputs": [[266, 0, 0]]
    }, 
    {
      "op": "Reshape", 
      "name": "encoder_transformer_4_att_self_reshape1", 
      "attrs": {"shape": "(-3, -1, 64)"}, 
      "inputs": [[267, 0, 0]]
    }, 
    {
      "op": "Reshape", 
      "name": "encoder_transformer_4_att_self_reshape2", 
      "attrs": {"shape": "(0, -1, 8, 64)"}, 
      "inputs": [[264, 1, 0]]
    }, 
    {
      "op": "transpose", 
      "name": "encoder_transformer_4_att_self_transpose1", 
      "attrs": {"axes": "(0, 2, 1, 3)"}, 
      "inputs": [[269, 0, 0]]
    }, 
    {
      "op": "Reshape", 
      "name": "encoder_transformer_4_att_self_reshape3", 
      "attrs": {"shape": "(-3, -1, 64)"}, 
      "inputs": [[270, 0, 0]]
    }, 
    {
      "op": "batch_dot", 
      "name": "encoder_transformer_4_att_self_dot_attbatch_dot0", 
      "attrs": {"transpose_b": "True"}, 
      "inputs": [[268, 0, 0], [271, 0, 0]]
    }, 
    {
      "op": "broadcast_add", 
      "name": "encoder_transformer_4_att_self_dot_attbroadcast_add0", 
      "inputs": [[272, 0, 0], [108, 0, 0]]
    }, 
    {
      "op": "softmax", 
      "name": "encoder_transformer_4_att_self_dot_attsoftmax0", 
      "attrs": {"axis": "-1"}, 
      "inputs": [[273, 0, 0]]
    }, 
    {
      "op": "Dropout", 
      "name": "encoder_transformer_4_att_self_dot_attdropout0", 
      "attrs": {"p": "0.1"}, 
      "inputs": [[274, 0, 0]]
    }, 
    {
      "op": "Reshape", 
      "name": "encoder_transformer_4_att_self_reshape4", 
      "attrs": {"shape": "(0, -1, 8, 64)"}, 
      "inputs": [[264, 2, 0]]
    }, 
    {
      "op": "transpose", 
      "name": "encoder_transformer_4_att_self_transpose2", 
      "attrs": {"axes": "(0, 2, 1, 3)"}, 
      "inputs": [[276, 0, 0]]
    }, 
    {
      "op": "Reshape", 
      "name": "encoder_transformer_4_att_self_reshape5", 
      "attrs": {"shape": "(-3, -1, 64)"}, 
      "inputs": [[277, 0, 0]]
    }, 
    {
      "op": "batch_dot", 
      "name": "encoder_transformer_4_att_self_dot_attbatch_dot1", 
      "inputs": [[275, 0, 0], [278, 0, 0]]
    }, 
    {
      "op": "Reshape", 
      "name": "encoder_transformer_4_att_self_reshape6", 
      "attrs": {"shape": "(-4, -1, 8, 0, 64)"}, 
      "inputs": [[279, 0, 0]]
    }, 
    {
      "op": "transpose", 
      "name": "encoder_transformer_4_att_self_transpose3", 
      "attrs": {"axes": "(0, 2, 1, 3)"}, 
      "inputs": [[280, 0, 0]]
    }, 
    {
      "op": "Reshape", 
      "name": "encoder_transformer_4_att_self_reshape7", 
      "attrs": {"shape": "(-1, 0, 512)"}, 
      "inputs": [[281, 0, 0]]
    }, 
    {
      "op": "null", 
      "name": "encoder_transformer_4_att_self_h2o_weight", 
      "attrs": {
        "__dtype__": "0", 
        "__lr_mult__": "1.0", 
        "__shape__": "(512, 0)", 
        "__storage_type__": "0", 
        "__wd_mult__": "1.0"
      }, 
      "inputs": []
    }, 
    {
      "op": "FullyConnected", 
      "name": "encoder_transformer_4_att_self_h2o_fwd", 
      "attrs": {
        "flatten": "False", 
        "no_bias": "True", 
        "num_hidden": "512"
      }, 
      "inputs": [[282, 0, 0], [283, 0, 0]]
    }, 
    {
      "op": "Dropout", 
      "name": "encoder_transformer_4_att_self_post_dropout0", 
      "attrs": {"p": "0.1"}, 
      "inputs": [[284, 0, 0]]
    }, 
    {
      "op": "elemwise_add", 
      "name": "encoder_transformer_4_att_self_post__plus0", 
      "inputs": [[285, 0, 0], [258, 0, 0]]
    }, 
    {
      "op": "null", 
      "name": "encoder_transformer_4_ff_pre_norm_gamma", 
      "attrs": {
        "__dtype__": "0", 
        "__init__": "[\"constant\", {\"value\": 1.0}]", 
        "__lr_mult__": "1.0", 
        "__storage_type__": "0", 
        "__wd_mult__": "1.0"
      }, 
      "inputs": []
    }, 
    {
      "op": "null", 
      "name": "encoder_transformer_4_ff_pre_norm_beta", 
      "attrs": {
        "__dtype__": "0", 
        "__init__": "[\"constant\", {\"value\": 0.0}]", 
        "__lr_mult__": "1.0", 
        "__storage_type__": "0", 
        "__wd_mult__": "1.0"
      }, 
      "inputs": []
    }, 
    {
      "op": "LayerNorm", 
      "name": "encoder_transformer_4_ff_pre_normlayernorm0", 
      "attrs": {
        "axis": "-1", 
        "eps": "1e-06", 
        "output_mean_var": "False"
      }, 
      "inputs": [[286, 0, 0], [287, 0, 0], [288, 0, 0]]
    }, 
    {
      "op": "null", 
      "name": "encoder_transformer_4_ff_i2h_weight", 
      "attrs": {
        "__dtype__": "0", 
        "__lr_mult__": "1.0", 
        "__shape__": "(256, 0)", 
        "__storage_type__": "0", 
        "__wd_mult__": "1.0"
      }, 
      "inputs": []
    }, 
    {
      "op": "null", 
      "name": "encoder_transformer_4_ff_i2h_bias", 
      "attrs": {
        "__dtype__": "0", 
        "__init__": "zeros", 
        "__lr_mult__": "1.0", 
        "__shape__": "(256,)", 
        "__storage_type__": "0", 
        "__wd_mult__": "1.0"
      }, 
      "inputs": []
    }, 
    {
      "op": "FullyConnected", 
      "name": "encoder_transformer_4_ff_i2h_fwd", 
      "attrs": {
        "flatten": "False", 
        "no_bias": "False", 
        "num_hidden": "256"
      }, 
      "inputs": [[289, 0, 0], [290, 0, 0], [291, 0, 0]]
    }, 
    {
      "op": "Activation", 
      "name": "encoder_transformer_4_ff_relu0_fwd", 
      "attrs": {"act_type": "relu"}, 
      "inputs": [[292, 0, 0]]
    }, 
    {
      "op": "Dropout", 
      "name": "encoder_transformer_4_ff_dropout0", 
      "attrs": {"p": "0.1"}, 
      "inputs": [[293, 0, 0]]
    }, 
    {
      "op": "null", 
      "name": "encoder_transformer_4_ff_h2o_weight", 
      "attrs": {
        "__dtype__": "0", 
        "__lr_mult__": "1.0", 
        "__shape__": "(512, 0)", 
        "__storage_type__": "0", 
        "__wd_mult__": "1.0"
      }, 
      "inputs": []
    }, 
    {
      "op": "null", 
      "name": "encoder_transformer_4_ff_h2o_bias", 
      "attrs": {
        "__dtype__": "0", 
        "__init__": "zeros", 
        "__lr_mult__": "1.0", 
        "__shape__": "(512,)", 
        "__storage_type__": "0", 
        "__wd_mult__": "1.0"
      }, 
      "inputs": []
    }, 
    {
      "op": "FullyConnected", 
      "name": "encoder_transformer_4_ff_h2o_fwd", 
      "attrs": {
        "flatten": "False", 
        "no_bias": "False", 
        "num_hidden": "512"
      }, 
      "inputs": [[294, 0, 0], [295, 0, 0], [296, 0, 0]]
    }, 
    {
      "op": "Dropout", 
      "name": "encoder_transformer_4_ff_post_dropout0", 
      "attrs": {"p": "0.1"}, 
      "inputs": [[297, 0, 0]]
    }, 
    {
      "op": "elemwise_add", 
      "name": "encoder_transformer_4_ff_post__plus0", 
      "inputs": [[298, 0, 0], [286, 0, 0]]
    }, 
    {
      "op": "null", 
      "name": "encoder_transformer_5_att_self_pre_norm_gamma", 
      "attrs": {
        "__dtype__": "0", 
        "__init__": "[\"constant\", {\"value\": 1.0}]", 
        "__lr_mult__": "1.0", 
        "__storage_type__": "0", 
        "__wd_mult__": "1.0"
      }, 
      "inputs": []
    }, 
    {
      "op": "null", 
      "name": "encoder_transformer_5_att_self_pre_norm_beta", 
      "attrs": {
        "__dtype__": "0", 
        "__init__": "[\"constant\", {\"value\": 0.0}]", 
        "__lr_mult__": "1.0", 
        "__storage_type__": "0", 
        "__wd_mult__": "1.0"
      }, 
      "inputs": []
    }, 
    {
      "op": "LayerNorm", 
      "name": "encoder_transformer_5_att_self_pre_normlayernorm0", 
      "attrs": {
        "axis": "-1", 
        "eps": "1e-06", 
        "output_mean_var": "False"
      }, 
      "inputs": [[299, 0, 0], [300, 0, 0], [301, 0, 0]]
    }, 
    {
      "op": "null", 
      "name": "encoder_transformer_5_att_self_i2h_weight", 
      "attrs": {
        "__dtype__": "0", 
        "__lr_mult__": "1.0", 
        "__shape__": "(1536, 0)", 
        "__storage_type__": "0", 
        "__wd_mult__": "1.0"
      }, 
      "inputs": []
    }, 
    {
      "op": "FullyConnected", 
      "name": "encoder_transformer_5_att_self_i2h_fwd", 
      "attrs": {
        "flatten": "False", 
        "no_bias": "True", 
        "num_hidden": "1536"
      }, 
      "inputs": [[302, 0, 0], [303, 0, 0]]
    }, 
    {
      "op": "SliceChannel", 
      "name": "encoder_transformer_5_att_self_split0", 
      "attrs": {
        "axis": "2", 
        "num_outputs": "3"
      }, 
      "inputs": [[304, 0, 0]]
    }, 
    {
      "op": "_mul_scalar", 
      "name": "encoder_transformer_5_att_self__mulscalar0", 
      "attrs": {"scalar": "0.125"}, 
      "inputs": [[305, 0, 0]]
    }, 
    {
      "op": "Reshape", 
      "name": "encoder_transformer_5_att_self_reshape0", 
      "attrs": {"shape": "(0, -1, 8, 64)"}, 
      "inputs": [[306, 0, 0]]
    }, 
    {
      "op": "transpose", 
      "name": "encoder_transformer_5_att_self_transpose0", 
      "attrs": {"axes": "(0, 2, 1, 3)"}, 
      "inputs": [[307, 0, 0]]
    }, 
    {
      "op": "Reshape", 
      "name": "encoder_transformer_5_att_self_reshape1", 
      "attrs": {"shape": "(-3, -1, 64)"}, 
      "inputs": [[308, 0, 0]]
    }, 
    {
      "op": "Reshape", 
      "name": "encoder_transformer_5_att_self_reshape2", 
      "attrs": {"shape": "(0, -1, 8, 64)"}, 
      "inputs": [[305, 1, 0]]
    }, 
    {
      "op": "transpose", 
      "name": "encoder_transformer_5_att_self_transpose1", 
      "attrs": {"axes": "(0, 2, 1, 3)"}, 
      "inputs": [[310, 0, 0]]
    }, 
    {
      "op": "Reshape", 
      "name": "encoder_transformer_5_att_self_reshape3", 
      "attrs": {"shape": "(-3, -1, 64)"}, 
      "inputs": [[311, 0, 0]]
    }, 
    {
      "op": "batch_dot", 
      "name": "encoder_transformer_5_att_self_dot_attbatch_dot0", 
      "attrs": {"transpose_b": "True"}, 
      "inputs": [[309, 0, 0], [312, 0, 0]]
    }, 
    {
      "op": "broadcast_add", 
      "name": "encoder_transformer_5_att_self_dot_attbroadcast_add0", 
      "inputs": [[313, 0, 0], [108, 0, 0]]
    }, 
    {
      "op": "softmax", 
      "name": "encoder_transformer_5_att_self_dot_attsoftmax0", 
      "attrs": {"axis": "-1"}, 
      "inputs": [[314, 0, 0]]
    }, 
    {
      "op": "Dropout", 
      "name": "encoder_transformer_5_att_self_dot_attdropout0", 
      "attrs": {"p": "0.1"}, 
      "inputs": [[315, 0, 0]]
    }, 
    {
      "op": "Reshape", 
      "name": "encoder_transformer_5_att_self_reshape4", 
      "attrs": {"shape": "(0, -1, 8, 64)"}, 
      "inputs": [[305, 2, 0]]
    }, 
    {
      "op": "transpose", 
      "name": "encoder_transformer_5_att_self_transpose2", 
      "attrs": {"axes": "(0, 2, 1, 3)"}, 
      "inputs": [[317, 0, 0]]
    }, 
    {
      "op": "Reshape", 
      "name": "encoder_transformer_5_att_self_reshape5", 
      "attrs": {"shape": "(-3, -1, 64)"}, 
      "inputs": [[318, 0, 0]]
    }, 
    {
      "op": "batch_dot", 
      "name": "encoder_transformer_5_att_self_dot_attbatch_dot1", 
      "inputs": [[316, 0, 0], [319, 0, 0]]
    }, 
    {
      "op": "Reshape", 
      "name": "encoder_transformer_5_att_self_reshape6", 
      "attrs": {"shape": "(-4, -1, 8, 0, 64)"}, 
      "inputs": [[320, 0, 0]]
    }, 
    {
      "op": "transpose", 
      "name": "encoder_transformer_5_att_self_transpose3", 
      "attrs": {"axes": "(0, 2, 1, 3)"}, 
      "inputs": [[321, 0, 0]]
    }, 
    {
      "op": "Reshape", 
      "name": "encoder_transformer_5_att_self_reshape7", 
      "attrs": {"shape": "(-1, 0, 512)"}, 
      "inputs": [[322, 0, 0]]
    }, 
    {
      "op": "null", 
      "name": "encoder_transformer_5_att_self_h2o_weight", 
      "attrs": {
        "__dtype__": "0", 
        "__lr_mult__": "1.0", 
        "__shape__": "(512, 0)", 
        "__storage_type__": "0", 
        "__wd_mult__": "1.0"
      }, 
      "inputs": []
    }, 
    {
      "op": "FullyConnected", 
      "name": "encoder_transformer_5_att_self_h2o_fwd", 
      "attrs": {
        "flatten": "False", 
        "no_bias": "True", 
        "num_hidden": "512"
      }, 
      "inputs": [[323, 0, 0], [324, 0, 0]]
    }, 
    {
      "op": "Dropout", 
      "name": "encoder_transformer_5_att_self_post_dropout0", 
      "attrs": {"p": "0.1"}, 
      "inputs": [[325, 0, 0]]
    }, 
    {
      "op": "elemwise_add", 
      "name": "encoder_transformer_5_att_self_post__plus0", 
      "inputs": [[326, 0, 0], [299, 0, 0]]
    }, 
    {
      "op": "null", 
      "name": "encoder_transformer_5_ff_pre_norm_gamma", 
      "attrs": {
        "__dtype__": "0", 
        "__init__": "[\"constant\", {\"value\": 1.0}]", 
        "__lr_mult__": "1.0", 
        "__storage_type__": "0", 
        "__wd_mult__": "1.0"
      }, 
      "inputs": []
    }, 
    {
      "op": "null", 
      "name": "encoder_transformer_5_ff_pre_norm_beta", 
      "attrs": {
        "__dtype__": "0", 
        "__init__": "[\"constant\", {\"value\": 0.0}]", 
        "__lr_mult__": "1.0", 
        "__storage_type__": "0", 
        "__wd_mult__": "1.0"
      }, 
      "inputs": []
    }, 
    {
      "op": "LayerNorm", 
      "name": "encoder_transformer_5_ff_pre_normlayernorm0", 
      "attrs": {
        "axis": "-1", 
        "eps": "1e-06", 
        "output_mean_var": "False"
      }, 
      "inputs": [[327, 0, 0], [328, 0, 0], [329, 0, 0]]
    }, 
    {
      "op": "null", 
      "name": "encoder_transformer_5_ff_i2h_weight", 
      "attrs": {
        "__dtype__": "0", 
        "__lr_mult__": "1.0", 
        "__shape__": "(256, 0)", 
        "__storage_type__": "0", 
        "__wd_mult__": "1.0"
      }, 
      "inputs": []
    }, 
    {
      "op": "null", 
      "name": "encoder_transformer_5_ff_i2h_bias", 
      "attrs": {
        "__dtype__": "0", 
        "__init__": "zeros", 
        "__lr_mult__": "1.0", 
        "__shape__": "(256,)", 
        "__storage_type__": "0", 
        "__wd_mult__": "1.0"
      }, 
      "inputs": []
    }, 
    {
      "op": "FullyConnected", 
      "name": "encoder_transformer_5_ff_i2h_fwd", 
      "attrs": {
        "flatten": "False", 
        "no_bias": "False", 
        "num_hidden": "256"
      }, 
      "inputs": [[330, 0, 0], [331, 0, 0], [332, 0, 0]]
    }, 
    {
      "op": "Activation", 
      "name": "encoder_transformer_5_ff_relu0_fwd", 
      "attrs": {"act_type": "relu"}, 
      "inputs": [[333, 0, 0]]
    }, 
    {
      "op": "Dropout", 
      "name": "encoder_transformer_5_ff_dropout0", 
      "attrs": {"p": "0.1"}, 
      "inputs": [[334, 0, 0]]
    }, 
    {
      "op": "null", 
      "name": "encoder_transformer_5_ff_h2o_weight", 
      "attrs": {
        "__dtype__": "0", 
        "__lr_mult__": "1.0", 
        "__shape__": "(512, 0)", 
        "__storage_type__": "0", 
        "__wd_mult__": "1.0"
      }, 
      "inputs": []
    }, 
    {
      "op": "null", 
      "name": "encoder_transformer_5_ff_h2o_bias", 
      "attrs": {
        "__dtype__": "0", 
        "__init__": "zeros", 
        "__lr_mult__": "1.0", 
        "__shape__": "(512,)", 
        "__storage_type__": "0", 
        "__wd_mult__": "1.0"
      }, 
      "inputs": []
    }, 
    {
      "op": "FullyConnected", 
      "name": "encoder_transformer_5_ff_h2o_fwd", 
      "attrs": {
        "flatten": "False", 
        "no_bias": "False", 
        "num_hidden": "512"
      }, 
      "inputs": [[335, 0, 0], [336, 0, 0], [337, 0, 0]]
    }, 
    {
      "op": "Dropout", 
      "name": "encoder_transformer_5_ff_post_dropout0", 
      "attrs": {"p": "0.1"}, 
      "inputs": [[338, 0, 0]]
    }, 
    {
      "op": "elemwise_add", 
      "name": "encoder_transformer_5_ff_post__plus0", 
      "inputs": [[339, 0, 0], [327, 0, 0]]
    }, 
    {
      "op": "null", 
      "name": "encoder_transformer_final_process_norm_gamma", 
      "attrs": {
        "__dtype__": "0", 
        "__init__": "[\"constant\", {\"value\": 1.0}]", 
        "__lr_mult__": "1.0", 
        "__storage_type__": "0", 
        "__wd_mult__": "1.0"
      }, 
      "inputs": []
    }, 
    {
      "op": "null", 
      "name": "encoder_transformer_final_process_norm_beta", 
      "attrs": {
        "__dtype__": "0", 
        "__init__": "[\"constant\", {\"value\": 0.0}]", 
        "__lr_mult__": "1.0", 
        "__storage_type__": "0", 
        "__wd_mult__": "1.0"
      }, 
      "inputs": []
    }, 
    {
      "op": "LayerNorm", 
      "name": "encoder_transformer_final_process_normlayernorm0", 
      "attrs": {
        "axis": "-1", 
        "eps": "1e-06", 
        "output_mean_var": "False"
      }, 
      "inputs": [[340, 0, 0], [341, 0, 0], [342, 0, 0]]
    }, 
    {
      "op": "null", 
      "name": "decoder_transformer_0_att_enc_k2h_weight", 
      "attrs": {
        "__dtype__": "0", 
        "__lr_mult__": "1.0", 
        "__shape__": "(512, 0)", 
        "__storage_type__": "0", 
        "__wd_mult__": "1.0"
      }, 
      "inputs": []
    }, 
    {
      "op": "FullyConnected", 
      "name": "decoder_transformer_0_att_enc_k2h_fwd", 
      "attrs": {
        "flatten": "False", 
        "no_bias": "True", 
        "num_hidden": "512"
      }, 
      "inputs": [[343, 0, 0], [344, 0, 0]]
    }, 
    {
      "op": "Reshape", 
      "name": "decoder_transformer_0_att_enc_reshape2", 
      "attrs": {"shape": "(0, -1, 8, 64)"}, 
      "inputs": [[345, 0, 0]]
    }, 
    {
      "op": "transpose", 
      "name": "decoder_transformer_0_att_enc_transpose1", 
      "attrs": {"axes": "(0, 2, 1, 3)"}, 
      "inputs": [[346, 0, 0]]
    }, 
    {
      "op": "Reshape", 
      "name": "decoder_transformer_0_att_enc_reshape3", 
      "attrs": {"shape": "(-3, -1, 64)"}, 
      "inputs": [[347, 0, 0]]
    }, 
    {
      "op": "batch_dot", 
      "name": "decoder_transformer_0_att_enc_dot_attbatch_dot0", 
      "attrs": {"transpose_b": "True"}, 
      "inputs": [[62, 0, 0], [348, 0, 0]]
    }, 
    {
      "op": "zeros_like", 
      "name": "decoder_transformer_source_biaszeros_like0", 
      "inputs": [[99, 0, 0]]
    }, 
    {
      "op": "Reshape", 
      "name": "decoder_transformer_source_biasreshape0", 
      "attrs": {"shape": "(-1, 1)"}, 
      "inputs": [[350, 0, 0]]
    }, 
    {
      "op": "broadcast_like", 
      "name": "decoder_transformer_source_biasbroadcast_like0", 
      "attrs": {
        "lhs_axes": "(1,)", 
        "rhs_axes": "(1,)"
      }, 
      "inputs": [[351, 0, 0], [343, 0, 0]]
    }, 
    {
      "op": "SequenceMask", 
      "name": "decoder_transformer_source_biassequencemask0", 
      "attrs": {
        "axis": "1", 
        "use_sequence_length": "True", 
        "value": "-99999999.0"
      }, 
      "inputs": [[352, 0, 0], [99, 0, 0]]
    }, 
    {
      "op": "expand_dims", 
      "name": "decoder_transformer_source_biasexpand_dims0", 
      "attrs": {"axis": "1"}, 
      "inputs": [[353, 0, 0]]
    }, 
    {
      "op": "broadcast_to", 
      "name": "decoder_transformer_source_biasbroadcast_to0", 
      "attrs": {"shape": "[0, 8, 0]"}, 
      "inputs": [[354, 0, 0]]
    }, 
    {
      "op": "Reshape", 
      "name": "decoder_transformer_source_biasreshape1", 
      "attrs": {"shape": "[-3, 0]"}, 
      "inputs": [[355, 0, 0]]
    }, 
    {
      "op": "BlockGrad", 
      "name": "decoder_transformer_source_biasblockgrad0", 
      "inputs": [[356, 0, 0]]
    }, 
    {
      "op": "expand_dims", 
      "name": "expand_dims3", 
      "attrs": {"axis": "1"}, 
      "inputs": [[357, 0, 0]]
    }, 
    {
      "op": "broadcast_add", 
      "name": "decoder_transformer_0_att_enc_dot_attbroadcast_add0", 
      "inputs": [[349, 0, 0], [358, 0, 0]]
    }, 
    {
      "op": "softmax", 
      "name": "decoder_transformer_0_att_enc_dot_attsoftmax0", 
      "attrs": {"axis": "-1"}, 
      "inputs": [[359, 0, 0]]
    }, 
    {
      "op": "Dropout", 
      "name": "decoder_transformer_0_att_enc_dot_attdropout0", 
      "attrs": {"p": "0.1"}, 
      "inputs": [[360, 0, 0]]
    }, 
    {
      "op": "null", 
      "name": "decoder_transformer_0_att_enc_v2h_weight", 
      "attrs": {
        "__dtype__": "0", 
        "__lr_mult__": "1.0", 
        "__shape__": "(512, 0)", 
        "__storage_type__": "0", 
        "__wd_mult__": "1.0"
      }, 
      "inputs": []
    }, 
    {
      "op": "FullyConnected", 
      "name": "decoder_transformer_0_att_enc_v2h_fwd", 
      "attrs": {
        "flatten": "False", 
        "no_bias": "True", 
        "num_hidden": "512"
      }, 
      "inputs": [[343, 0, 0], [362, 0, 0]]
    }, 
    {
      "op": "Reshape", 
      "name": "decoder_transformer_0_att_enc_reshape4", 
      "attrs": {"shape": "(0, -1, 8, 64)"}, 
      "inputs": [[363, 0, 0]]
    }, 
    {
      "op": "transpose", 
      "name": "decoder_transformer_0_att_enc_transpose2", 
      "attrs": {"axes": "(0, 2, 1, 3)"}, 
      "inputs": [[364, 0, 0]]
    }, 
    {
      "op": "Reshape", 
      "name": "decoder_transformer_0_att_enc_reshape5", 
      "attrs": {"shape": "(-3, -1, 64)"}, 
      "inputs": [[365, 0, 0]]
    }, 
    {
      "op": "batch_dot", 
      "name": "decoder_transformer_0_att_enc_dot_attbatch_dot1", 
      "inputs": [[361, 0, 0], [366, 0, 0]]
    }, 
    {
      "op": "Reshape", 
      "name": "decoder_transformer_0_att_enc_reshape6", 
      "attrs": {"shape": "(-4, -1, 8, 0, 64)"}, 
      "inputs": [[367, 0, 0]]
    }, 
    {
      "op": "transpose", 
      "name": "decoder_transformer_0_att_enc_transpose3", 
      "attrs": {"axes": "(0, 2, 1, 3)"}, 
      "inputs": [[368, 0, 0]]
    }, 
    {
      "op": "Reshape", 
      "name": "decoder_transformer_0_att_enc_reshape7", 
      "attrs": {"shape": "(-1, 0, 512)"}, 
      "inputs": [[369, 0, 0]]
    }, 
    {
      "op": "null", 
      "name": "decoder_transformer_0_att_enc_h2o_weight", 
      "attrs": {
        "__dtype__": "0", 
        "__lr_mult__": "1.0", 
        "__shape__": "(512, 0)", 
        "__storage_type__": "0", 
        "__wd_mult__": "1.0"
      }, 
      "inputs": []
    }, 
    {
      "op": "FullyConnected", 
      "name": "decoder_transformer_0_att_enc_h2o_fwd", 
      "attrs": {
        "flatten": "False", 
        "no_bias": "True", 
        "num_hidden": "512"
      }, 
      "inputs": [[370, 0, 0], [371, 0, 0]]
    }, 
    {
      "op": "Dropout", 
      "name": "decoder_transformer_0_att_enc_post_dropout0", 
      "attrs": {"p": "0.1"}, 
      "inputs": [[372, 0, 0]]
    }, 
    {
      "op": "elemwise_add", 
      "name": "decoder_transformer_0_att_enc_post__plus0", 
      "inputs": [[373, 0, 0], [53, 0, 0]]
    }, 
    {
      "op": "null", 
      "name": "decoder_transformer_0_ff_pre_norm_gamma", 
      "attrs": {
        "__dtype__": "0", 
        "__init__": "[\"constant\", {\"value\": 1.0}]", 
        "__lr_mult__": "1.0", 
        "__storage_type__": "0", 
        "__wd_mult__": "1.0"
      }, 
      "inputs": []
    }, 
    {
      "op": "null", 
      "name": "decoder_transformer_0_ff_pre_norm_beta", 
      "attrs": {
        "__dtype__": "0", 
        "__init__": "[\"constant\", {\"value\": 0.0}]", 
        "__lr_mult__": "1.0", 
        "__storage_type__": "0", 
        "__wd_mult__": "1.0"
      }, 
      "inputs": []
    }, 
    {
      "op": "LayerNorm", 
      "name": "decoder_transformer_0_ff_pre_normlayernorm0", 
      "attrs": {
        "axis": "-1", 
        "eps": "1e-06", 
        "output_mean_var": "False"
      }, 
      "inputs": [[374, 0, 0], [375, 0, 0], [376, 0, 0]]
    }, 
    {
      "op": "null", 
      "name": "decoder_transformer_0_ff_i2h_weight", 
      "attrs": {
        "__dtype__": "0", 
        "__lr_mult__": "1.0", 
        "__shape__": "(256, 0)", 
        "__storage_type__": "0", 
        "__wd_mult__": "1.0"
      }, 
      "inputs": []
    }, 
    {
      "op": "null", 
      "name": "decoder_transformer_0_ff_i2h_bias", 
      "attrs": {
        "__dtype__": "0", 
        "__init__": "zeros", 
        "__lr_mult__": "1.0", 
        "__shape__": "(256,)", 
        "__storage_type__": "0", 
        "__wd_mult__": "1.0"
      }, 
      "inputs": []
    }, 
    {
      "op": "FullyConnected", 
      "name": "decoder_transformer_0_ff_i2h_fwd", 
      "attrs": {
        "flatten": "False", 
        "no_bias": "False", 
        "num_hidden": "256"
      }, 
      "inputs": [[377, 0, 0], [378, 0, 0], [379, 0, 0]]
    }, 
    {
      "op": "Activation", 
      "name": "decoder_transformer_0_ff_relu0_fwd", 
      "attrs": {"act_type": "relu"}, 
      "inputs": [[380, 0, 0]]
    }, 
    {
      "op": "Dropout", 
      "name": "decoder_transformer_0_ff_dropout0", 
      "attrs": {"p": "0.1"}, 
      "inputs": [[381, 0, 0]]
    }, 
    {
      "op": "null", 
      "name": "decoder_transformer_0_ff_h2o_weight", 
      "attrs": {
        "__dtype__": "0", 
        "__lr_mult__": "1.0", 
        "__shape__": "(512, 0)", 
        "__storage_type__": "0", 
        "__wd_mult__": "1.0"
      }, 
      "inputs": []
    }, 
    {
      "op": "null", 
      "name": "decoder_transformer_0_ff_h2o_bias", 
      "attrs": {
        "__dtype__": "0", 
        "__init__": "zeros", 
        "__lr_mult__": "1.0", 
        "__shape__": "(512,)", 
        "__storage_type__": "0", 
        "__wd_mult__": "1.0"
      }, 
      "inputs": []
    }, 
    {
      "op": "FullyConnected", 
      "name": "decoder_transformer_0_ff_h2o_fwd", 
      "attrs": {
        "flatten": "False", 
        "no_bias": "False", 
        "num_hidden": "512"
      }, 
      "inputs": [[382, 0, 0], [383, 0, 0], [384, 0, 0]]
    }, 
    {
      "op": "Dropout", 
      "name": "decoder_transformer_0_ff_post_dropout0", 
      "attrs": {"p": "0.1"}, 
      "inputs": [[385, 0, 0]]
    }, 
    {
      "op": "elemwise_add", 
      "name": "decoder_transformer_0_ff_post__plus0", 
      "inputs": [[386, 0, 0], [374, 0, 0]]
    }, 
    {
      "op": "null", 
      "name": "decoder_transformer_1_att_self_pre_norm_gamma", 
      "attrs": {
        "__dtype__": "0", 
        "__init__": "[\"constant\", {\"value\": 1.0}]", 
        "__lr_mult__": "1.0", 
        "__storage_type__": "0", 
        "__wd_mult__": "1.0"
      }, 
      "inputs": []
    }, 
    {
      "op": "null", 
      "name": "decoder_transformer_1_att_self_pre_norm_beta", 
      "attrs": {
        "__dtype__": "0", 
        "__init__": "[\"constant\", {\"value\": 0.0}]", 
        "__lr_mult__": "1.0", 
        "__storage_type__": "0", 
        "__wd_mult__": "1.0"
      }, 
      "inputs": []
    }, 
    {
      "op": "LayerNorm", 
      "name": "decoder_transformer_1_att_self_pre_normlayernorm0", 
      "attrs": {
        "axis": "-1", 
        "eps": "1e-06", 
        "output_mean_var": "False"
      }, 
      "inputs": [[387, 0, 0], [388, 0, 0], [389, 0, 0]]
    }, 
    {
      "op": "null", 
      "name": "decoder_transformer_1_att_self_i2h_weight", 
      "attrs": {
        "__dtype__": "0", 
        "__lr_mult__": "1.0", 
        "__shape__": "(1536, 0)", 
        "__storage_type__": "0", 
        "__wd_mult__": "1.0"
      }, 
      "inputs": []
    }, 
    {
      "op": "FullyConnected", 
      "name": "decoder_transformer_1_att_self_i2h_fwd", 
      "attrs": {
        "flatten": "False", 
        "no_bias": "True", 
        "num_hidden": "1536"
      }, 
      "inputs": [[390, 0, 0], [391, 0, 0]]
    }, 
    {
      "op": "SliceChannel", 
      "name": "decoder_transformer_1_att_self_split0", 
      "attrs": {
        "axis": "2", 
        "num_outputs": "3"
      }, 
      "inputs": [[392, 0, 0]]
    }, 
    {
      "op": "_mul_scalar", 
      "name": "decoder_transformer_1_att_self__mulscalar0", 
      "attrs": {"scalar": "0.125"}, 
      "inputs": [[393, 0, 0]]
    }, 
    {
      "op": "Reshape", 
      "name": "decoder_transformer_1_att_self_reshape0", 
      "attrs": {"shape": "(0, -1, 8, 64)"}, 
      "inputs": [[394, 0, 0]]
    }, 
    {
      "op": "transpose", 
      "name": "decoder_transformer_1_att_self_transpose0", 
      "attrs": {"axes": "(0, 2, 1, 3)"}, 
      "inputs": [[395, 0, 0]]
    }, 
    {
      "op": "Reshape", 
      "name": "decoder_transformer_1_att_self_reshape1", 
      "attrs": {"shape": "(-3, -1, 64)"}, 
      "inputs": [[396, 0, 0]]
    }, 
    {
      "op": "Reshape", 
      "name": "decoder_transformer_1_att_self_reshape2", 
      "attrs": {"shape": "(0, -1, 8, 64)"}, 
      "inputs": [[393, 1, 0]]
    }, 
    {
      "op": "transpose", 
      "name": "decoder_transformer_1_att_self_transpose1", 
      "attrs": {"axes": "(0, 2, 1, 3)"}, 
      "inputs": [[398, 0, 0]]
    }, 
    {
      "op": "Reshape", 
      "name": "decoder_transformer_1_att_self_reshape3", 
      "attrs": {"shape": "(-3, -1, 64)"}, 
      "inputs": [[399, 0, 0]]
    }, 
    {
      "op": "batch_dot", 
      "name": "decoder_transformer_1_att_self_dot_attbatch_dot0", 
      "attrs": {"transpose_b": "True"}, 
      "inputs": [[397, 0, 0], [400, 0, 0]]
    }, 
    {
      "op": "broadcast_add", 
      "name": "decoder_transformer_1_att_self_dot_attbroadcast_add0", 
      "inputs": [[401, 0, 0], [39, 0, 0]]
    }, 
    {
      "op": "softmax", 
      "name": "decoder_transformer_1_att_self_dot_attsoftmax0", 
      "attrs": {"axis": "-1"}, 
      "inputs": [[402, 0, 0]]
    }, 
    {
      "op": "Dropout", 
      "name": "decoder_transformer_1_att_self_dot_attdropout0", 
      "attrs": {"p": "0.1"}, 
      "inputs": [[403, 0, 0]]
    }, 
    {
      "op": "Reshape", 
      "name": "decoder_transformer_1_att_self_reshape4", 
      "attrs": {"shape": "(0, -1, 8, 64)"}, 
      "inputs": [[393, 2, 0]]
    }, 
    {
      "op": "transpose", 
      "name": "decoder_transformer_1_att_self_transpose2", 
      "attrs": {"axes": "(0, 2, 1, 3)"}, 
      "inputs": [[405, 0, 0]]
    }, 
    {
      "op": "Reshape", 
      "name": "decoder_transformer_1_att_self_reshape5", 
      "attrs": {"shape": "(-3, -1, 64)"}, 
      "inputs": [[406, 0, 0]]
    }, 
    {
      "op": "batch_dot", 
      "name": "decoder_transformer_1_att_self_dot_attbatch_dot1", 
      "inputs": [[404, 0, 0], [407, 0, 0]]
    }, 
    {
      "op": "Reshape", 
      "name": "decoder_transformer_1_att_self_reshape6", 
      "attrs": {"shape": "(-4, -1, 8, 0, 64)"}, 
      "inputs": [[408, 0, 0]]
    }, 
    {
      "op": "transpose", 
      "name": "decoder_transformer_1_att_self_transpose3", 
      "attrs": {"axes": "(0, 2, 1, 3)"}, 
      "inputs": [[409, 0, 0]]
    }, 
    {
      "op": "Reshape", 
      "name": "decoder_transformer_1_att_self_reshape7", 
      "attrs": {"shape": "(-1, 0, 512)"}, 
      "inputs": [[410, 0, 0]]
    }, 
    {
      "op": "null", 
      "name": "decoder_transformer_1_att_self_h2o_weight", 
      "attrs": {
        "__dtype__": "0", 
        "__lr_mult__": "1.0", 
        "__shape__": "(512, 0)", 
        "__storage_type__": "0", 
        "__wd_mult__": "1.0"
      }, 
      "inputs": []
    }, 
    {
      "op": "FullyConnected", 
      "name": "decoder_transformer_1_att_self_h2o_fwd", 
      "attrs": {
        "flatten": "False", 
        "no_bias": "True", 
        "num_hidden": "512"
      }, 
      "inputs": [[411, 0, 0], [412, 0, 0]]
    }, 
    {
      "op": "Dropout", 
      "name": "decoder_transformer_1_att_self_post_dropout0", 
      "attrs": {"p": "0.1"}, 
      "inputs": [[413, 0, 0]]
    }, 
    {
      "op": "elemwise_add", 
      "name": "decoder_transformer_1_att_self_post__plus0", 
      "inputs": [[414, 0, 0], [387, 0, 0]]
    }, 
    {
      "op": "null", 
      "name": "decoder_transformer_1_att_enc_pre_norm_gamma", 
      "attrs": {
        "__dtype__": "0", 
        "__init__": "[\"constant\", {\"value\": 1.0}]", 
        "__lr_mult__": "1.0", 
        "__storage_type__": "0", 
        "__wd_mult__": "1.0"
      }, 
      "inputs": []
    }, 
    {
      "op": "null", 
      "name": "decoder_transformer_1_att_enc_pre_norm_beta", 
      "attrs": {
        "__dtype__": "0", 
        "__init__": "[\"constant\", {\"value\": 0.0}]", 
        "__lr_mult__": "1.0", 
        "__storage_type__": "0", 
        "__wd_mult__": "1.0"
      }, 
      "inputs": []
    }, 
    {
      "op": "LayerNorm", 
      "name": "decoder_transformer_1_att_enc_pre_normlayernorm0", 
      "attrs": {
        "axis": "-1", 
        "eps": "1e-06", 
        "output_mean_var": "False"
      }, 
      "inputs": [[415, 0, 0], [416, 0, 0], [417, 0, 0]]
    }, 
    {
      "op": "null", 
      "name": "decoder_transformer_1_att_enc_q2h_weight", 
      "attrs": {
        "__dtype__": "0", 
        "__lr_mult__": "1.0", 
        "__shape__": "(512, 0)", 
        "__storage_type__": "0", 
        "__wd_mult__": "1.0"
      }, 
      "inputs": []
    }, 
    {
      "op": "FullyConnected", 
      "name": "decoder_transformer_1_att_enc_q2h_fwd", 
      "attrs": {
        "flatten": "False", 
        "no_bias": "True", 
        "num_hidden": "512"
      }, 
      "inputs": [[418, 0, 0], [419, 0, 0]]
    }, 
    {
      "op": "_mul_scalar", 
      "name": "decoder_transformer_1_att_enc__mulscalar0", 
      "attrs": {"scalar": "0.125"}, 
      "inputs": [[420, 0, 0]]
    }, 
    {
      "op": "Reshape", 
      "name": "decoder_transformer_1_att_enc_reshape0", 
      "attrs": {"shape": "(0, -1, 8, 64)"}, 
      "inputs": [[421, 0, 0]]
    }, 
    {
      "op": "transpose", 
      "name": "decoder_transformer_1_att_enc_transpose0", 
      "attrs": {"axes": "(0, 2, 1, 3)"}, 
      "inputs": [[422, 0, 0]]
    }, 
    {
      "op": "Reshape", 
      "name": "decoder_transformer_1_att_enc_reshape1", 
      "attrs": {"shape": "(-3, -1, 64)"}, 
      "inputs": [[423, 0, 0]]
    }, 
    {
      "op": "null", 
      "name": "decoder_transformer_1_att_enc_k2h_weight", 
      "attrs": {
        "__dtype__": "0", 
        "__lr_mult__": "1.0", 
        "__shape__": "(512, 0)", 
        "__storage_type__": "0", 
        "__wd_mult__": "1.0"
      }, 
      "inputs": []
    }, 
    {
      "op": "FullyConnected", 
      "name": "decoder_transformer_1_att_enc_k2h_fwd", 
      "attrs": {
        "flatten": "False", 
        "no_bias": "True", 
        "num_hidden": "512"
      }, 
      "inputs": [[343, 0, 0], [425, 0, 0]]
    }, 
    {
      "op": "Reshape", 
      "name": "decoder_transformer_1_att_enc_reshape2", 
      "attrs": {"shape": "(0, -1, 8, 64)"}, 
      "inputs": [[426, 0, 0]]
    }, 
    {
      "op": "transpose", 
      "name": "decoder_transformer_1_att_enc_transpose1", 
      "attrs": {"axes": "(0, 2, 1, 3)"}, 
      "inputs": [[427, 0, 0]]
    }, 
    {
      "op": "Reshape", 
      "name": "decoder_transformer_1_att_enc_reshape3", 
      "attrs": {"shape": "(-3, -1, 64)"}, 
      "inputs": [[428, 0, 0]]
    }, 
    {
      "op": "batch_dot", 
      "name": "decoder_transformer_1_att_enc_dot_attbatch_dot0", 
      "attrs": {"transpose_b": "True"}, 
      "inputs": [[424, 0, 0], [429, 0, 0]]
    }, 
    {
      "op": "broadcast_add", 
      "name": "decoder_transformer_1_att_enc_dot_attbroadcast_add0", 
      "inputs": [[430, 0, 0], [358, 0, 0]]
    }, 
    {
      "op": "softmax", 
      "name": "decoder_transformer_1_att_enc_dot_attsoftmax0", 
      "attrs": {"axis": "-1"}, 
      "inputs": [[431, 0, 0]]
    }, 
    {
      "op": "Dropout", 
      "name": "decoder_transformer_1_att_enc_dot_attdropout0", 
      "attrs": {"p": "0.1"}, 
      "inputs": [[432, 0, 0]]
    }, 
    {
      "op": "null", 
      "name": "decoder_transformer_1_att_enc_v2h_weight", 
      "attrs": {
        "__dtype__": "0", 
        "__lr_mult__": "1.0", 
        "__shape__": "(512, 0)", 
        "__storage_type__": "0", 
        "__wd_mult__": "1.0"
      }, 
      "inputs": []
    }, 
    {
      "op": "FullyConnected", 
      "name": "decoder_transformer_1_att_enc_v2h_fwd", 
      "attrs": {
        "flatten": "False", 
        "no_bias": "True", 
        "num_hidden": "512"
      }, 
      "inputs": [[343, 0, 0], [434, 0, 0]]
    }, 
    {
      "op": "Reshape", 
      "name": "decoder_transformer_1_att_enc_reshape4", 
      "attrs": {"shape": "(0, -1, 8, 64)"}, 
      "inputs": [[435, 0, 0]]
    }, 
    {
      "op": "transpose", 
      "name": "decoder_transformer_1_att_enc_transpose2", 
      "attrs": {"axes": "(0, 2, 1, 3)"}, 
      "inputs": [[436, 0, 0]]
    }, 
    {
      "op": "Reshape", 
      "name": "decoder_transformer_1_att_enc_reshape5", 
      "attrs": {"shape": "(-3, -1, 64)"}, 
      "inputs": [[437, 0, 0]]
    }, 
    {
      "op": "batch_dot", 
      "name": "decoder_transformer_1_att_enc_dot_attbatch_dot1", 
      "inputs": [[433, 0, 0], [438, 0, 0]]
    }, 
    {
      "op": "Reshape", 
      "name": "decoder_transformer_1_att_enc_reshape6", 
      "attrs": {"shape": "(-4, -1, 8, 0, 64)"}, 
      "inputs": [[439, 0, 0]]
    }, 
    {
      "op": "transpose", 
      "name": "decoder_transformer_1_att_enc_transpose3", 
      "attrs": {"axes": "(0, 2, 1, 3)"}, 
      "inputs": [[440, 0, 0]]
    }, 
    {
      "op": "Reshape", 
      "name": "decoder_transformer_1_att_enc_reshape7", 
      "attrs": {"shape": "(-1, 0, 512)"}, 
      "inputs": [[441, 0, 0]]
    }, 
    {
      "op": "null", 
      "name": "decoder_transformer_1_att_enc_h2o_weight", 
      "attrs": {
        "__dtype__": "0", 
        "__lr_mult__": "1.0", 
        "__shape__": "(512, 0)", 
        "__storage_type__": "0", 
        "__wd_mult__": "1.0"
      }, 
      "inputs": []
    }, 
    {
      "op": "FullyConnected", 
      "name": "decoder_transformer_1_att_enc_h2o_fwd", 
      "attrs": {
        "flatten": "False", 
        "no_bias": "True", 
        "num_hidden": "512"
      }, 
      "inputs": [[442, 0, 0], [443, 0, 0]]
    }, 
    {
      "op": "Dropout", 
      "name": "decoder_transformer_1_att_enc_post_dropout0", 
      "attrs": {"p": "0.1"}, 
      "inputs": [[444, 0, 0]]
    }, 
    {
      "op": "elemwise_add", 
      "name": "decoder_transformer_1_att_enc_post__plus0", 
      "inputs": [[445, 0, 0], [415, 0, 0]]
    }, 
    {
      "op": "null", 
      "name": "decoder_transformer_1_ff_pre_norm_gamma", 
      "attrs": {
        "__dtype__": "0", 
        "__init__": "[\"constant\", {\"value\": 1.0}]", 
        "__lr_mult__": "1.0", 
        "__storage_type__": "0", 
        "__wd_mult__": "1.0"
      }, 
      "inputs": []
    }, 
    {
      "op": "null", 
      "name": "decoder_transformer_1_ff_pre_norm_beta", 
      "attrs": {
        "__dtype__": "0", 
        "__init__": "[\"constant\", {\"value\": 0.0}]", 
        "__lr_mult__": "1.0", 
        "__storage_type__": "0", 
        "__wd_mult__": "1.0"
      }, 
      "inputs": []
    }, 
    {
      "op": "LayerNorm", 
      "name": "decoder_transformer_1_ff_pre_normlayernorm0", 
      "attrs": {
        "axis": "-1", 
        "eps": "1e-06", 
        "output_mean_var": "False"
      }, 
      "inputs": [[446, 0, 0], [447, 0, 0], [448, 0, 0]]
    }, 
    {
      "op": "null", 
      "name": "decoder_transformer_1_ff_i2h_weight", 
      "attrs": {
        "__dtype__": "0", 
        "__lr_mult__": "1.0", 
        "__shape__": "(256, 0)", 
        "__storage_type__": "0", 
        "__wd_mult__": "1.0"
      }, 
      "inputs": []
    }, 
    {
      "op": "null", 
      "name": "decoder_transformer_1_ff_i2h_bias", 
      "attrs": {
        "__dtype__": "0", 
        "__init__": "zeros", 
        "__lr_mult__": "1.0", 
        "__shape__": "(256,)", 
        "__storage_type__": "0", 
        "__wd_mult__": "1.0"
      }, 
      "inputs": []
    }, 
    {
      "op": "FullyConnected", 
      "name": "decoder_transformer_1_ff_i2h_fwd", 
      "attrs": {
        "flatten": "False", 
        "no_bias": "False", 
        "num_hidden": "256"
      }, 
      "inputs": [[449, 0, 0], [450, 0, 0], [451, 0, 0]]
    }, 
    {
      "op": "Activation", 
      "name": "decoder_transformer_1_ff_relu0_fwd", 
      "attrs": {"act_type": "relu"}, 
      "inputs": [[452, 0, 0]]
    }, 
    {
      "op": "Dropout", 
      "name": "decoder_transformer_1_ff_dropout0", 
      "attrs": {"p": "0.1"}, 
      "inputs": [[453, 0, 0]]
    }, 
    {
      "op": "null", 
      "name": "decoder_transformer_1_ff_h2o_weight", 
      "attrs": {
        "__dtype__": "0", 
        "__lr_mult__": "1.0", 
        "__shape__": "(512, 0)", 
        "__storage_type__": "0", 
        "__wd_mult__": "1.0"
      }, 
      "inputs": []
    }, 
    {
      "op": "null", 
      "name": "decoder_transformer_1_ff_h2o_bias", 
      "attrs": {
        "__dtype__": "0", 
        "__init__": "zeros", 
        "__lr_mult__": "1.0", 
        "__shape__": "(512,)", 
        "__storage_type__": "0", 
        "__wd_mult__": "1.0"
      }, 
      "inputs": []
    }, 
    {
      "op": "FullyConnected", 
      "name": "decoder_transformer_1_ff_h2o_fwd", 
      "attrs": {
        "flatten": "False", 
        "no_bias": "False", 
        "num_hidden": "512"
      }, 
      "inputs": [[454, 0, 0], [455, 0, 0], [456, 0, 0]]
    }, 
    {
      "op": "Dropout", 
      "name": "decoder_transformer_1_ff_post_dropout0", 
      "attrs": {"p": "0.1"}, 
      "inputs": [[457, 0, 0]]
    }, 
    {
      "op": "elemwise_add", 
      "name": "decoder_transformer_1_ff_post__plus0", 
      "inputs": [[458, 0, 0], [446, 0, 0]]
    }, 
    {
      "op": "null", 
      "name": "decoder_transformer_2_att_self_pre_norm_gamma", 
      "attrs": {
        "__dtype__": "0", 
        "__init__": "[\"constant\", {\"value\": 1.0}]", 
        "__lr_mult__": "1.0", 
        "__storage_type__": "0", 
        "__wd_mult__": "1.0"
      }, 
      "inputs": []
    }, 
    {
      "op": "null", 
      "name": "decoder_transformer_2_att_self_pre_norm_beta", 
      "attrs": {
        "__dtype__": "0", 
        "__init__": "[\"constant\", {\"value\": 0.0}]", 
        "__lr_mult__": "1.0", 
        "__storage_type__": "0", 
        "__wd_mult__": "1.0"
      }, 
      "inputs": []
    }, 
    {
      "op": "LayerNorm", 
      "name": "decoder_transformer_2_att_self_pre_normlayernorm0", 
      "attrs": {
        "axis": "-1", 
        "eps": "1e-06", 
        "output_mean_var": "False"
      }, 
      "inputs": [[459, 0, 0], [460, 0, 0], [461, 0, 0]]
    }, 
    {
      "op": "null", 
      "name": "decoder_transformer_2_att_self_i2h_weight", 
      "attrs": {
        "__dtype__": "0", 
        "__lr_mult__": "1.0", 
        "__shape__": "(1536, 0)", 
        "__storage_type__": "0", 
        "__wd_mult__": "1.0"
      }, 
      "inputs": []
    }, 
    {
      "op": "FullyConnected", 
      "name": "decoder_transformer_2_att_self_i2h_fwd", 
      "attrs": {
        "flatten": "False", 
        "no_bias": "True", 
        "num_hidden": "1536"
      }, 
      "inputs": [[462, 0, 0], [463, 0, 0]]
    }, 
    {
      "op": "SliceChannel", 
      "name": "decoder_transformer_2_att_self_split0", 
      "attrs": {
        "axis": "2", 
        "num_outputs": "3"
      }, 
      "inputs": [[464, 0, 0]]
    }, 
    {
      "op": "_mul_scalar", 
      "name": "decoder_transformer_2_att_self__mulscalar0", 
      "attrs": {"scalar": "0.125"}, 
      "inputs": [[465, 0, 0]]
    }, 
    {
      "op": "Reshape", 
      "name": "decoder_transformer_2_att_self_reshape0", 
      "attrs": {"shape": "(0, -1, 8, 64)"}, 
      "inputs": [[466, 0, 0]]
    }, 
    {
      "op": "transpose", 
      "name": "decoder_transformer_2_att_self_transpose0", 
      "attrs": {"axes": "(0, 2, 1, 3)"}, 
      "inputs": [[467, 0, 0]]
    }, 
    {
      "op": "Reshape", 
      "name": "decoder_transformer_2_att_self_reshape1", 
      "attrs": {"shape": "(-3, -1, 64)"}, 
      "inputs": [[468, 0, 0]]
    }, 
    {
      "op": "Reshape", 
      "name": "decoder_transformer_2_att_self_reshape2", 
      "attrs": {"shape": "(0, -1, 8, 64)"}, 
      "inputs": [[465, 1, 0]]
    }, 
    {
      "op": "transpose", 
      "name": "decoder_transformer_2_att_self_transpose1", 
      "attrs": {"axes": "(0, 2, 1, 3)"}, 
      "inputs": [[470, 0, 0]]
    }, 
    {
      "op": "Reshape", 
      "name": "decoder_transformer_2_att_self_reshape3", 
      "attrs": {"shape": "(-3, -1, 64)"}, 
      "inputs": [[471, 0, 0]]
    }, 
    {
      "op": "batch_dot", 
      "name": "decoder_transformer_2_att_self_dot_attbatch_dot0", 
      "attrs": {"transpose_b": "True"}, 
      "inputs": [[469, 0, 0], [472, 0, 0]]
    }, 
    {
      "op": "broadcast_add", 
      "name": "decoder_transformer_2_att_self_dot_attbroadcast_add0", 
      "inputs": [[473, 0, 0], [39, 0, 0]]
    }, 
    {
      "op": "softmax", 
      "name": "decoder_transformer_2_att_self_dot_attsoftmax0", 
      "attrs": {"axis": "-1"}, 
      "inputs": [[474, 0, 0]]
    }, 
    {
      "op": "Dropout", 
      "name": "decoder_transformer_2_att_self_dot_attdropout0", 
      "attrs": {"p": "0.1"}, 
      "inputs": [[475, 0, 0]]
    }, 
    {
      "op": "Reshape", 
      "name": "decoder_transformer_2_att_self_reshape4", 
      "attrs": {"shape": "(0, -1, 8, 64)"}, 
      "inputs": [[465, 2, 0]]
    }, 
    {
      "op": "transpose", 
      "name": "decoder_transformer_2_att_self_transpose2", 
      "attrs": {"axes": "(0, 2, 1, 3)"}, 
      "inputs": [[477, 0, 0]]
    }, 
    {
      "op": "Reshape", 
      "name": "decoder_transformer_2_att_self_reshape5", 
      "attrs": {"shape": "(-3, -1, 64)"}, 
      "inputs": [[478, 0, 0]]
    }, 
    {
      "op": "batch_dot", 
      "name": "decoder_transformer_2_att_self_dot_attbatch_dot1", 
      "inputs": [[476, 0, 0], [479, 0, 0]]
    }, 
    {
      "op": "Reshape", 
      "name": "decoder_transformer_2_att_self_reshape6", 
      "attrs": {"shape": "(-4, -1, 8, 0, 64)"}, 
      "inputs": [[480, 0, 0]]
    }, 
    {
      "op": "transpose", 
      "name": "decoder_transformer_2_att_self_transpose3", 
      "attrs": {"axes": "(0, 2, 1, 3)"}, 
      "inputs": [[481, 0, 0]]
    }, 
    {
      "op": "Reshape", 
      "name": "decoder_transformer_2_att_self_reshape7", 
      "attrs": {"shape": "(-1, 0, 512)"}, 
      "inputs": [[482, 0, 0]]
    }, 
    {
      "op": "null", 
      "name": "decoder_transformer_2_att_self_h2o_weight", 
      "attrs": {
        "__dtype__": "0", 
        "__lr_mult__": "1.0", 
        "__shape__": "(512, 0)", 
        "__storage_type__": "0", 
        "__wd_mult__": "1.0"
      }, 
      "inputs": []
    }, 
    {
      "op": "FullyConnected", 
      "name": "decoder_transformer_2_att_self_h2o_fwd", 
      "attrs": {
        "flatten": "False", 
        "no_bias": "True", 
        "num_hidden": "512"
      }, 
      "inputs": [[483, 0, 0], [484, 0, 0]]
    }, 
    {
      "op": "Dropout", 
      "name": "decoder_transformer_2_att_self_post_dropout0", 
      "attrs": {"p": "0.1"}, 
      "inputs": [[485, 0, 0]]
    }, 
    {
      "op": "elemwise_add", 
      "name": "decoder_transformer_2_att_self_post__plus0", 
      "inputs": [[486, 0, 0], [459, 0, 0]]
    }, 
    {
      "op": "null", 
      "name": "decoder_transformer_2_att_enc_pre_norm_gamma", 
      "attrs": {
        "__dtype__": "0", 
        "__init__": "[\"constant\", {\"value\": 1.0}]", 
        "__lr_mult__": "1.0", 
        "__storage_type__": "0", 
        "__wd_mult__": "1.0"
      }, 
      "inputs": []
    }, 
    {
      "op": "null", 
      "name": "decoder_transformer_2_att_enc_pre_norm_beta", 
      "attrs": {
        "__dtype__": "0", 
        "__init__": "[\"constant\", {\"value\": 0.0}]", 
        "__lr_mult__": "1.0", 
        "__storage_type__": "0", 
        "__wd_mult__": "1.0"
      }, 
      "inputs": []
    }, 
    {
      "op": "LayerNorm", 
      "name": "decoder_transformer_2_att_enc_pre_normlayernorm0", 
      "attrs": {
        "axis": "-1", 
        "eps": "1e-06", 
        "output_mean_var": "False"
      }, 
      "inputs": [[487, 0, 0], [488, 0, 0], [489, 0, 0]]
    }, 
    {
      "op": "null", 
      "name": "decoder_transformer_2_att_enc_q2h_weight", 
      "attrs": {
        "__dtype__": "0", 
        "__lr_mult__": "1.0", 
        "__shape__": "(512, 0)", 
        "__storage_type__": "0", 
        "__wd_mult__": "1.0"
      }, 
      "inputs": []
    }, 
    {
      "op": "FullyConnected", 
      "name": "decoder_transformer_2_att_enc_q2h_fwd", 
      "attrs": {
        "flatten": "False", 
        "no_bias": "True", 
        "num_hidden": "512"
      }, 
      "inputs": [[490, 0, 0], [491, 0, 0]]
    }, 
    {
      "op": "_mul_scalar", 
      "name": "decoder_transformer_2_att_enc__mulscalar0", 
      "attrs": {"scalar": "0.125"}, 
      "inputs": [[492, 0, 0]]
    }, 
    {
      "op": "Reshape", 
      "name": "decoder_transformer_2_att_enc_reshape0", 
      "attrs": {"shape": "(0, -1, 8, 64)"}, 
      "inputs": [[493, 0, 0]]
    }, 
    {
      "op": "transpose", 
      "name": "decoder_transformer_2_att_enc_transpose0", 
      "attrs": {"axes": "(0, 2, 1, 3)"}, 
      "inputs": [[494, 0, 0]]
    }, 
    {
      "op": "Reshape", 
      "name": "decoder_transformer_2_att_enc_reshape1", 
      "attrs": {"shape": "(-3, -1, 64)"}, 
      "inputs": [[495, 0, 0]]
    }, 
    {
      "op": "null", 
      "name": "decoder_transformer_2_att_enc_k2h_weight", 
      "attrs": {
        "__dtype__": "0", 
        "__lr_mult__": "1.0", 
        "__shape__": "(512, 0)", 
        "__storage_type__": "0", 
        "__wd_mult__": "1.0"
      }, 
      "inputs": []
    }, 
    {
      "op": "FullyConnected", 
      "name": "decoder_transformer_2_att_enc_k2h_fwd", 
      "attrs": {
        "flatten": "False", 
        "no_bias": "True", 
        "num_hidden": "512"
      }, 
      "inputs": [[343, 0, 0], [497, 0, 0]]
    }, 
    {
      "op": "Reshape", 
      "name": "decoder_transformer_2_att_enc_reshape2", 
      "attrs": {"shape": "(0, -1, 8, 64)"}, 
      "inputs": [[498, 0, 0]]
    }, 
    {
      "op": "transpose", 
      "name": "decoder_transformer_2_att_enc_transpose1", 
      "attrs": {"axes": "(0, 2, 1, 3)"}, 
      "inputs": [[499, 0, 0]]
    }, 
    {
      "op": "Reshape", 
      "name": "decoder_transformer_2_att_enc_reshape3", 
      "attrs": {"shape": "(-3, -1, 64)"}, 
      "inputs": [[500, 0, 0]]
    }, 
    {
      "op": "batch_dot", 
      "name": "decoder_transformer_2_att_enc_dot_attbatch_dot0", 
      "attrs": {"transpose_b": "True"}, 
      "inputs": [[496, 0, 0], [501, 0, 0]]
    }, 
    {
      "op": "broadcast_add", 
      "name": "decoder_transformer_2_att_enc_dot_attbroadcast_add0", 
      "inputs": [[502, 0, 0], [358, 0, 0]]
    }, 
    {
      "op": "softmax", 
      "name": "decoder_transformer_2_att_enc_dot_attsoftmax0", 
      "attrs": {"axis": "-1"}, 
      "inputs": [[503, 0, 0]]
    }, 
    {
      "op": "Dropout", 
      "name": "decoder_transformer_2_att_enc_dot_attdropout0", 
      "attrs": {"p": "0.1"}, 
      "inputs": [[504, 0, 0]]
    }, 
    {
      "op": "null", 
      "name": "decoder_transformer_2_att_enc_v2h_weight", 
      "attrs": {
        "__dtype__": "0", 
        "__lr_mult__": "1.0", 
        "__shape__": "(512, 0)", 
        "__storage_type__": "0", 
        "__wd_mult__": "1.0"
      }, 
      "inputs": []
    }, 
    {
      "op": "FullyConnected", 
      "name": "decoder_transformer_2_att_enc_v2h_fwd", 
      "attrs": {
        "flatten": "False", 
        "no_bias": "True", 
        "num_hidden": "512"
      }, 
      "inputs": [[343, 0, 0], [506, 0, 0]]
    }, 
    {
      "op": "Reshape", 
      "name": "decoder_transformer_2_att_enc_reshape4", 
      "attrs": {"shape": "(0, -1, 8, 64)"}, 
      "inputs": [[507, 0, 0]]
    }, 
    {
      "op": "transpose", 
      "name": "decoder_transformer_2_att_enc_transpose2", 
      "attrs": {"axes": "(0, 2, 1, 3)"}, 
      "inputs": [[508, 0, 0]]
    }, 
    {
      "op": "Reshape", 
      "name": "decoder_transformer_2_att_enc_reshape5", 
      "attrs": {"shape": "(-3, -1, 64)"}, 
      "inputs": [[509, 0, 0]]
    }, 
    {
      "op": "batch_dot", 
      "name": "decoder_transformer_2_att_enc_dot_attbatch_dot1", 
      "inputs": [[505, 0, 0], [510, 0, 0]]
    }, 
    {
      "op": "Reshape", 
      "name": "decoder_transformer_2_att_enc_reshape6", 
      "attrs": {"shape": "(-4, -1, 8, 0, 64)"}, 
      "inputs": [[511, 0, 0]]
    }, 
    {
      "op": "transpose", 
      "name": "decoder_transformer_2_att_enc_transpose3", 
      "attrs": {"axes": "(0, 2, 1, 3)"}, 
      "inputs": [[512, 0, 0]]
    }, 
    {
      "op": "Reshape", 
      "name": "decoder_transformer_2_att_enc_reshape7", 
      "attrs": {"shape": "(-1, 0, 512)"}, 
      "inputs": [[513, 0, 0]]
    }, 
    {
      "op": "null", 
      "name": "decoder_transformer_2_att_enc_h2o_weight", 
      "attrs": {
        "__dtype__": "0", 
        "__lr_mult__": "1.0", 
        "__shape__": "(512, 0)", 
        "__storage_type__": "0", 
        "__wd_mult__": "1.0"
      }, 
      "inputs": []
    }, 
    {
      "op": "FullyConnected", 
      "name": "decoder_transformer_2_att_enc_h2o_fwd", 
      "attrs": {
        "flatten": "False", 
        "no_bias": "True", 
        "num_hidden": "512"
      }, 
      "inputs": [[514, 0, 0], [515, 0, 0]]
    }, 
    {
      "op": "Dropout", 
      "name": "decoder_transformer_2_att_enc_post_dropout0", 
      "attrs": {"p": "0.1"}, 
      "inputs": [[516, 0, 0]]
    }, 
    {
      "op": "elemwise_add", 
      "name": "decoder_transformer_2_att_enc_post__plus0", 
      "inputs": [[517, 0, 0], [487, 0, 0]]
    }, 
    {
      "op": "null", 
      "name": "decoder_transformer_2_ff_pre_norm_gamma", 
      "attrs": {
        "__dtype__": "0", 
        "__init__": "[\"constant\", {\"value\": 1.0}]", 
        "__lr_mult__": "1.0", 
        "__storage_type__": "0", 
        "__wd_mult__": "1.0"
      }, 
      "inputs": []
    }, 
    {
      "op": "null", 
      "name": "decoder_transformer_2_ff_pre_norm_beta", 
      "attrs": {
        "__dtype__": "0", 
        "__init__": "[\"constant\", {\"value\": 0.0}]", 
        "__lr_mult__": "1.0", 
        "__storage_type__": "0", 
        "__wd_mult__": "1.0"
      }, 
      "inputs": []
    }, 
    {
      "op": "LayerNorm", 
      "name": "decoder_transformer_2_ff_pre_normlayernorm0", 
      "attrs": {
        "axis": "-1", 
        "eps": "1e-06", 
        "output_mean_var": "False"
      }, 
      "inputs": [[518, 0, 0], [519, 0, 0], [520, 0, 0]]
    }, 
    {
      "op": "null", 
      "name": "decoder_transformer_2_ff_i2h_weight", 
      "attrs": {
        "__dtype__": "0", 
        "__lr_mult__": "1.0", 
        "__shape__": "(256, 0)", 
        "__storage_type__": "0", 
        "__wd_mult__": "1.0"
      }, 
      "inputs": []
    }, 
    {
      "op": "null", 
      "name": "decoder_transformer_2_ff_i2h_bias", 
      "attrs": {
        "__dtype__": "0", 
        "__init__": "zeros", 
        "__lr_mult__": "1.0", 
        "__shape__": "(256,)", 
        "__storage_type__": "0", 
        "__wd_mult__": "1.0"
      }, 
      "inputs": []
    }, 
    {
      "op": "FullyConnected", 
      "name": "decoder_transformer_2_ff_i2h_fwd", 
      "attrs": {
        "flatten": "False", 
        "no_bias": "False", 
        "num_hidden": "256"
      }, 
      "inputs": [[521, 0, 0], [522, 0, 0], [523, 0, 0]]
    }, 
    {
      "op": "Activation", 
      "name": "decoder_transformer_2_ff_relu0_fwd", 
      "attrs": {"act_type": "relu"}, 
      "inputs": [[524, 0, 0]]
    }, 
    {
      "op": "Dropout", 
      "name": "decoder_transformer_2_ff_dropout0", 
      "attrs": {"p": "0.1"}, 
      "inputs": [[525, 0, 0]]
    }, 
    {
      "op": "null", 
      "name": "decoder_transformer_2_ff_h2o_weight", 
      "attrs": {
        "__dtype__": "0", 
        "__lr_mult__": "1.0", 
        "__shape__": "(512, 0)", 
        "__storage_type__": "0", 
        "__wd_mult__": "1.0"
      }, 
      "inputs": []
    }, 
    {
      "op": "null", 
      "name": "decoder_transformer_2_ff_h2o_bias", 
      "attrs": {
        "__dtype__": "0", 
        "__init__": "zeros", 
        "__lr_mult__": "1.0", 
        "__shape__": "(512,)", 
        "__storage_type__": "0", 
        "__wd_mult__": "1.0"
      }, 
      "inputs": []
    }, 
    {
      "op": "FullyConnected", 
      "name": "decoder_transformer_2_ff_h2o_fwd", 
      "attrs": {
        "flatten": "False", 
        "no_bias": "False", 
        "num_hidden": "512"
      }, 
      "inputs": [[526, 0, 0], [527, 0, 0], [528, 0, 0]]
    }, 
    {
      "op": "Dropout", 
      "name": "decoder_transformer_2_ff_post_dropout0", 
      "attrs": {"p": "0.1"}, 
      "inputs": [[529, 0, 0]]
    }, 
    {
      "op": "elemwise_add", 
      "name": "decoder_transformer_2_ff_post__plus0", 
      "inputs": [[530, 0, 0], [518, 0, 0]]
    }, 
    {
      "op": "null", 
      "name": "decoder_transformer_3_att_self_pre_norm_gamma", 
      "attrs": {
        "__dtype__": "0", 
        "__init__": "[\"constant\", {\"value\": 1.0}]", 
        "__lr_mult__": "1.0", 
        "__storage_type__": "0", 
        "__wd_mult__": "1.0"
      }, 
      "inputs": []
    }, 
    {
      "op": "null", 
      "name": "decoder_transformer_3_att_self_pre_norm_beta", 
      "attrs": {
        "__dtype__": "0", 
        "__init__": "[\"constant\", {\"value\": 0.0}]", 
        "__lr_mult__": "1.0", 
        "__storage_type__": "0", 
        "__wd_mult__": "1.0"
      }, 
      "inputs": []
    }, 
    {
      "op": "LayerNorm", 
      "name": "decoder_transformer_3_att_self_pre_normlayernorm0", 
      "attrs": {
        "axis": "-1", 
        "eps": "1e-06", 
        "output_mean_var": "False"
      }, 
      "inputs": [[531, 0, 0], [532, 0, 0], [533, 0, 0]]
    }, 
    {
      "op": "null", 
      "name": "decoder_transformer_3_att_self_i2h_weight", 
      "attrs": {
        "__dtype__": "0", 
        "__lr_mult__": "1.0", 
        "__shape__": "(1536, 0)", 
        "__storage_type__": "0", 
        "__wd_mult__": "1.0"
      }, 
      "inputs": []
    }, 
    {
      "op": "FullyConnected", 
      "name": "decoder_transformer_3_att_self_i2h_fwd", 
      "attrs": {
        "flatten": "False", 
        "no_bias": "True", 
        "num_hidden": "1536"
      }, 
      "inputs": [[534, 0, 0], [535, 0, 0]]
    }, 
    {
      "op": "SliceChannel", 
      "name": "decoder_transformer_3_att_self_split0", 
      "attrs": {
        "axis": "2", 
        "num_outputs": "3"
      }, 
      "inputs": [[536, 0, 0]]
    }, 
    {
      "op": "_mul_scalar", 
      "name": "decoder_transformer_3_att_self__mulscalar0", 
      "attrs": {"scalar": "0.125"}, 
      "inputs": [[537, 0, 0]]
    }, 
    {
      "op": "Reshape", 
      "name": "decoder_transformer_3_att_self_reshape0", 
      "attrs": {"shape": "(0, -1, 8, 64)"}, 
      "inputs": [[538, 0, 0]]
    }, 
    {
      "op": "transpose", 
      "name": "decoder_transformer_3_att_self_transpose0", 
      "attrs": {"axes": "(0, 2, 1, 3)"}, 
      "inputs": [[539, 0, 0]]
    }, 
    {
      "op": "Reshape", 
      "name": "decoder_transformer_3_att_self_reshape1", 
      "attrs": {"shape": "(-3, -1, 64)"}, 
      "inputs": [[540, 0, 0]]
    }, 
    {
      "op": "Reshape", 
      "name": "decoder_transformer_3_att_self_reshape2", 
      "attrs": {"shape": "(0, -1, 8, 64)"}, 
      "inputs": [[537, 1, 0]]
    }, 
    {
      "op": "transpose", 
      "name": "decoder_transformer_3_att_self_transpose1", 
      "attrs": {"axes": "(0, 2, 1, 3)"}, 
      "inputs": [[542, 0, 0]]
    }, 
    {
      "op": "Reshape", 
      "name": "decoder_transformer_3_att_self_reshape3", 
      "attrs": {"shape": "(-3, -1, 64)"}, 
      "inputs": [[543, 0, 0]]
    }, 
    {
      "op": "batch_dot", 
      "name": "decoder_transformer_3_att_self_dot_attbatch_dot0", 
      "attrs": {"transpose_b": "True"}, 
      "inputs": [[541, 0, 0], [544, 0, 0]]
    }, 
    {
      "op": "broadcast_add", 
      "name": "decoder_transformer_3_att_self_dot_attbroadcast_add0", 
      "inputs": [[545, 0, 0], [39, 0, 0]]
    }, 
    {
      "op": "softmax", 
      "name": "decoder_transformer_3_att_self_dot_attsoftmax0", 
      "attrs": {"axis": "-1"}, 
      "inputs": [[546, 0, 0]]
    }, 
    {
      "op": "Dropout", 
      "name": "decoder_transformer_3_att_self_dot_attdropout0", 
      "attrs": {"p": "0.1"}, 
      "inputs": [[547, 0, 0]]
    }, 
    {
      "op": "Reshape", 
      "name": "decoder_transformer_3_att_self_reshape4", 
      "attrs": {"shape": "(0, -1, 8, 64)"}, 
      "inputs": [[537, 2, 0]]
    }, 
    {
      "op": "transpose", 
      "name": "decoder_transformer_3_att_self_transpose2", 
      "attrs": {"axes": "(0, 2, 1, 3)"}, 
      "inputs": [[549, 0, 0]]
    }, 
    {
      "op": "Reshape", 
      "name": "decoder_transformer_3_att_self_reshape5", 
      "attrs": {"shape": "(-3, -1, 64)"}, 
      "inputs": [[550, 0, 0]]
    }, 
    {
      "op": "batch_dot", 
      "name": "decoder_transformer_3_att_self_dot_attbatch_dot1", 
      "inputs": [[548, 0, 0], [551, 0, 0]]
    }, 
    {
      "op": "Reshape", 
      "name": "decoder_transformer_3_att_self_reshape6", 
      "attrs": {"shape": "(-4, -1, 8, 0, 64)"}, 
      "inputs": [[552, 0, 0]]
    }, 
    {
      "op": "transpose", 
      "name": "decoder_transformer_3_att_self_transpose3", 
      "attrs": {"axes": "(0, 2, 1, 3)"}, 
      "inputs": [[553, 0, 0]]
    }, 
    {
      "op": "Reshape", 
      "name": "decoder_transformer_3_att_self_reshape7", 
      "attrs": {"shape": "(-1, 0, 512)"}, 
      "inputs": [[554, 0, 0]]
    }, 
    {
      "op": "null", 
      "name": "decoder_transformer_3_att_self_h2o_weight", 
      "attrs": {
        "__dtype__": "0", 
        "__lr_mult__": "1.0", 
        "__shape__": "(512, 0)", 
        "__storage_type__": "0", 
        "__wd_mult__": "1.0"
      }, 
      "inputs": []
    }, 
    {
      "op": "FullyConnected", 
      "name": "decoder_transformer_3_att_self_h2o_fwd", 
      "attrs": {
        "flatten": "False", 
        "no_bias": "True", 
        "num_hidden": "512"
      }, 
      "inputs": [[555, 0, 0], [556, 0, 0]]
    }, 
    {
      "op": "Dropout", 
      "name": "decoder_transformer_3_att_self_post_dropout0", 
      "attrs": {"p": "0.1"}, 
      "inputs": [[557, 0, 0]]
    }, 
    {
      "op": "elemwise_add", 
      "name": "decoder_transformer_3_att_self_post__plus0", 
      "inputs": [[558, 0, 0], [531, 0, 0]]
    }, 
    {
      "op": "null", 
      "name": "decoder_transformer_3_att_enc_pre_norm_gamma", 
      "attrs": {
        "__dtype__": "0", 
        "__init__": "[\"constant\", {\"value\": 1.0}]", 
        "__lr_mult__": "1.0", 
        "__storage_type__": "0", 
        "__wd_mult__": "1.0"
      }, 
      "inputs": []
    }, 
    {
      "op": "null", 
      "name": "decoder_transformer_3_att_enc_pre_norm_beta", 
      "attrs": {
        "__dtype__": "0", 
        "__init__": "[\"constant\", {\"value\": 0.0}]", 
        "__lr_mult__": "1.0", 
        "__storage_type__": "0", 
        "__wd_mult__": "1.0"
      }, 
      "inputs": []
    }, 
    {
      "op": "LayerNorm", 
      "name": "decoder_transformer_3_att_enc_pre_normlayernorm0", 
      "attrs": {
        "axis": "-1", 
        "eps": "1e-06", 
        "output_mean_var": "False"
      }, 
      "inputs": [[559, 0, 0], [560, 0, 0], [561, 0, 0]]
    }, 
    {
      "op": "null", 
      "name": "decoder_transformer_3_att_enc_q2h_weight", 
      "attrs": {
        "__dtype__": "0", 
        "__lr_mult__": "1.0", 
        "__shape__": "(512, 0)", 
        "__storage_type__": "0", 
        "__wd_mult__": "1.0"
      }, 
      "inputs": []
    }, 
    {
      "op": "FullyConnected", 
      "name": "decoder_transformer_3_att_enc_q2h_fwd", 
      "attrs": {
        "flatten": "False", 
        "no_bias": "True", 
        "num_hidden": "512"
      }, 
      "inputs": [[562, 0, 0], [563, 0, 0]]
    }, 
    {
      "op": "_mul_scalar", 
      "name": "decoder_transformer_3_att_enc__mulscalar0", 
      "attrs": {"scalar": "0.125"}, 
      "inputs": [[564, 0, 0]]
    }, 
    {
      "op": "Reshape", 
      "name": "decoder_transformer_3_att_enc_reshape0", 
      "attrs": {"shape": "(0, -1, 8, 64)"}, 
      "inputs": [[565, 0, 0]]
    }, 
    {
      "op": "transpose", 
      "name": "decoder_transformer_3_att_enc_transpose0", 
      "attrs": {"axes": "(0, 2, 1, 3)"}, 
      "inputs": [[566, 0, 0]]
    }, 
    {
      "op": "Reshape", 
      "name": "decoder_transformer_3_att_enc_reshape1", 
      "attrs": {"shape": "(-3, -1, 64)"}, 
      "inputs": [[567, 0, 0]]
    }, 
    {
      "op": "null", 
      "name": "decoder_transformer_3_att_enc_k2h_weight", 
      "attrs": {
        "__dtype__": "0", 
        "__lr_mult__": "1.0", 
        "__shape__": "(512, 0)", 
        "__storage_type__": "0", 
        "__wd_mult__": "1.0"
      }, 
      "inputs": []
    }, 
    {
      "op": "FullyConnected", 
      "name": "decoder_transformer_3_att_enc_k2h_fwd", 
      "attrs": {
        "flatten": "False", 
        "no_bias": "True", 
        "num_hidden": "512"
      }, 
      "inputs": [[343, 0, 0], [569, 0, 0]]
    }, 
    {
      "op": "Reshape", 
      "name": "decoder_transformer_3_att_enc_reshape2", 
      "attrs": {"shape": "(0, -1, 8, 64)"}, 
      "inputs": [[570, 0, 0]]
    }, 
    {
      "op": "transpose", 
      "name": "decoder_transformer_3_att_enc_transpose1", 
      "attrs": {"axes": "(0, 2, 1, 3)"}, 
      "inputs": [[571, 0, 0]]
    }, 
    {
      "op": "Reshape", 
      "name": "decoder_transformer_3_att_enc_reshape3", 
      "attrs": {"shape": "(-3, -1, 64)"}, 
      "inputs": [[572, 0, 0]]
    }, 
    {
      "op": "batch_dot", 
      "name": "decoder_transformer_3_att_enc_dot_attbatch_dot0", 
      "attrs": {"transpose_b": "True"}, 
      "inputs": [[568, 0, 0], [573, 0, 0]]
    }, 
    {
      "op": "broadcast_add", 
      "name": "decoder_transformer_3_att_enc_dot_attbroadcast_add0", 
      "inputs": [[574, 0, 0], [358, 0, 0]]
    }, 
    {
      "op": "softmax", 
      "name": "decoder_transformer_3_att_enc_dot_attsoftmax0", 
      "attrs": {"axis": "-1"}, 
      "inputs": [[575, 0, 0]]
    }, 
    {
      "op": "Dropout", 
      "name": "decoder_transformer_3_att_enc_dot_attdropout0", 
      "attrs": {"p": "0.1"}, 
      "inputs": [[576, 0, 0]]
    }, 
    {
      "op": "null", 
      "name": "decoder_transformer_3_att_enc_v2h_weight", 
      "attrs": {
        "__dtype__": "0", 
        "__lr_mult__": "1.0", 
        "__shape__": "(512, 0)", 
        "__storage_type__": "0", 
        "__wd_mult__": "1.0"
      }, 
      "inputs": []
    }, 
    {
      "op": "FullyConnected", 
      "name": "decoder_transformer_3_att_enc_v2h_fwd", 
      "attrs": {
        "flatten": "False", 
        "no_bias": "True", 
        "num_hidden": "512"
      }, 
      "inputs": [[343, 0, 0], [578, 0, 0]]
    }, 
    {
      "op": "Reshape", 
      "name": "decoder_transformer_3_att_enc_reshape4", 
      "attrs": {"shape": "(0, -1, 8, 64)"}, 
      "inputs": [[579, 0, 0]]
    }, 
    {
      "op": "transpose", 
      "name": "decoder_transformer_3_att_enc_transpose2", 
      "attrs": {"axes": "(0, 2, 1, 3)"}, 
      "inputs": [[580, 0, 0]]
    }, 
    {
      "op": "Reshape", 
      "name": "decoder_transformer_3_att_enc_reshape5", 
      "attrs": {"shape": "(-3, -1, 64)"}, 
      "inputs": [[581, 0, 0]]
    }, 
    {
      "op": "batch_dot", 
      "name": "decoder_transformer_3_att_enc_dot_attbatch_dot1", 
      "inputs": [[577, 0, 0], [582, 0, 0]]
    }, 
    {
      "op": "Reshape", 
      "name": "decoder_transformer_3_att_enc_reshape6", 
      "attrs": {"shape": "(-4, -1, 8, 0, 64)"}, 
      "inputs": [[583, 0, 0]]
    }, 
    {
      "op": "transpose", 
      "name": "decoder_transformer_3_att_enc_transpose3", 
      "attrs": {"axes": "(0, 2, 1, 3)"}, 
      "inputs": [[584, 0, 0]]
    }, 
    {
      "op": "Reshape", 
      "name": "decoder_transformer_3_att_enc_reshape7", 
      "attrs": {"shape": "(-1, 0, 512)"}, 
      "inputs": [[585, 0, 0]]
    }, 
    {
      "op": "null", 
      "name": "decoder_transformer_3_att_enc_h2o_weight", 
      "attrs": {
        "__dtype__": "0", 
        "__lr_mult__": "1.0", 
        "__shape__": "(512, 0)", 
        "__storage_type__": "0", 
        "__wd_mult__": "1.0"
      }, 
      "inputs": []
    }, 
    {
      "op": "FullyConnected", 
      "name": "decoder_transformer_3_att_enc_h2o_fwd", 
      "attrs": {
        "flatten": "False", 
        "no_bias": "True", 
        "num_hidden": "512"
      }, 
      "inputs": [[586, 0, 0], [587, 0, 0]]
    }, 
    {
      "op": "Dropout", 
      "name": "decoder_transformer_3_att_enc_post_dropout0", 
      "attrs": {"p": "0.1"}, 
      "inputs": [[588, 0, 0]]
    }, 
    {
      "op": "elemwise_add", 
      "name": "decoder_transformer_3_att_enc_post__plus0", 
      "inputs": [[589, 0, 0], [559, 0, 0]]
    }, 
    {
      "op": "null", 
      "name": "decoder_transformer_3_ff_pre_norm_gamma", 
      "attrs": {
        "__dtype__": "0", 
        "__init__": "[\"constant\", {\"value\": 1.0}]", 
        "__lr_mult__": "1.0", 
        "__storage_type__": "0", 
        "__wd_mult__": "1.0"
      }, 
      "inputs": []
    }, 
    {
      "op": "null", 
      "name": "decoder_transformer_3_ff_pre_norm_beta", 
      "attrs": {
        "__dtype__": "0", 
        "__init__": "[\"constant\", {\"value\": 0.0}]", 
        "__lr_mult__": "1.0", 
        "__storage_type__": "0", 
        "__wd_mult__": "1.0"
      }, 
      "inputs": []
    }, 
    {
      "op": "LayerNorm", 
      "name": "decoder_transformer_3_ff_pre_normlayernorm0", 
      "attrs": {
        "axis": "-1", 
        "eps": "1e-06", 
        "output_mean_var": "False"
      }, 
      "inputs": [[590, 0, 0], [591, 0, 0], [592, 0, 0]]
    }, 
    {
      "op": "null", 
      "name": "decoder_transformer_3_ff_i2h_weight", 
      "attrs": {
        "__dtype__": "0", 
        "__lr_mult__": "1.0", 
        "__shape__": "(256, 0)", 
        "__storage_type__": "0", 
        "__wd_mult__": "1.0"
      }, 
      "inputs": []
    }, 
    {
      "op": "null", 
      "name": "decoder_transformer_3_ff_i2h_bias", 
      "attrs": {
        "__dtype__": "0", 
        "__init__": "zeros", 
        "__lr_mult__": "1.0", 
        "__shape__": "(256,)", 
        "__storage_type__": "0", 
        "__wd_mult__": "1.0"
      }, 
      "inputs": []
    }, 
    {
      "op": "FullyConnected", 
      "name": "decoder_transformer_3_ff_i2h_fwd", 
      "attrs": {
        "flatten": "False", 
        "no_bias": "False", 
        "num_hidden": "256"
      }, 
      "inputs": [[593, 0, 0], [594, 0, 0], [595, 0, 0]]
    }, 
    {
      "op": "Activation", 
      "name": "decoder_transformer_3_ff_relu0_fwd", 
      "attrs": {"act_type": "relu"}, 
      "inputs": [[596, 0, 0]]
    }, 
    {
      "op": "Dropout", 
      "name": "decoder_transformer_3_ff_dropout0", 
      "attrs": {"p": "0.1"}, 
      "inputs": [[597, 0, 0]]
    }, 
    {
      "op": "null", 
      "name": "decoder_transformer_3_ff_h2o_weight", 
      "attrs": {
        "__dtype__": "0", 
        "__lr_mult__": "1.0", 
        "__shape__": "(512, 0)", 
        "__storage_type__": "0", 
        "__wd_mult__": "1.0"
      }, 
      "inputs": []
    }, 
    {
      "op": "null", 
      "name": "decoder_transformer_3_ff_h2o_bias", 
      "attrs": {
        "__dtype__": "0", 
        "__init__": "zeros", 
        "__lr_mult__": "1.0", 
        "__shape__": "(512,)", 
        "__storage_type__": "0", 
        "__wd_mult__": "1.0"
      }, 
      "inputs": []
    }, 
    {
      "op": "FullyConnected", 
      "name": "decoder_transformer_3_ff_h2o_fwd", 
      "attrs": {
        "flatten": "False", 
        "no_bias": "False", 
        "num_hidden": "512"
      }, 
      "inputs": [[598, 0, 0], [599, 0, 0], [600, 0, 0]]
    }, 
    {
      "op": "Dropout", 
      "name": "decoder_transformer_3_ff_post_dropout0", 
      "attrs": {"p": "0.1"}, 
      "inputs": [[601, 0, 0]]
    }, 
    {
      "op": "elemwise_add", 
      "name": "decoder_transformer_3_ff_post__plus0", 
      "inputs": [[602, 0, 0], [590, 0, 0]]
    }, 
    {
      "op": "null", 
      "name": "decoder_transformer_4_att_self_pre_norm_gamma", 
      "attrs": {
        "__dtype__": "0", 
        "__init__": "[\"constant\", {\"value\": 1.0}]", 
        "__lr_mult__": "1.0", 
        "__storage_type__": "0", 
        "__wd_mult__": "1.0"
      }, 
      "inputs": []
    }, 
    {
      "op": "null", 
      "name": "decoder_transformer_4_att_self_pre_norm_beta", 
      "attrs": {
        "__dtype__": "0", 
        "__init__": "[\"constant\", {\"value\": 0.0}]", 
        "__lr_mult__": "1.0", 
        "__storage_type__": "0", 
        "__wd_mult__": "1.0"
      }, 
      "inputs": []
    }, 
    {
      "op": "LayerNorm", 
      "name": "decoder_transformer_4_att_self_pre_normlayernorm0", 
      "attrs": {
        "axis": "-1", 
        "eps": "1e-06", 
        "output_mean_var": "False"
      }, 
      "inputs": [[603, 0, 0], [604, 0, 0], [605, 0, 0]]
    }, 
    {
      "op": "null", 
      "name": "decoder_transformer_4_att_self_i2h_weight", 
      "attrs": {
        "__dtype__": "0", 
        "__lr_mult__": "1.0", 
        "__shape__": "(1536, 0)", 
        "__storage_type__": "0", 
        "__wd_mult__": "1.0"
      }, 
      "inputs": []
    }, 
    {
      "op": "FullyConnected", 
      "name": "decoder_transformer_4_att_self_i2h_fwd", 
      "attrs": {
        "flatten": "False", 
        "no_bias": "True", 
        "num_hidden": "1536"
      }, 
      "inputs": [[606, 0, 0], [607, 0, 0]]
    }, 
    {
      "op": "SliceChannel", 
      "name": "decoder_transformer_4_att_self_split0", 
      "attrs": {
        "axis": "2", 
        "num_outputs": "3"
      }, 
      "inputs": [[608, 0, 0]]
    }, 
    {
      "op": "_mul_scalar", 
      "name": "decoder_transformer_4_att_self__mulscalar0", 
      "attrs": {"scalar": "0.125"}, 
      "inputs": [[609, 0, 0]]
    }, 
    {
      "op": "Reshape", 
      "name": "decoder_transformer_4_att_self_reshape0", 
      "attrs": {"shape": "(0, -1, 8, 64)"}, 
      "inputs": [[610, 0, 0]]
    }, 
    {
      "op": "transpose", 
      "name": "decoder_transformer_4_att_self_transpose0", 
      "attrs": {"axes": "(0, 2, 1, 3)"}, 
      "inputs": [[611, 0, 0]]
    }, 
    {
      "op": "Reshape", 
      "name": "decoder_transformer_4_att_self_reshape1", 
      "attrs": {"shape": "(-3, -1, 64)"}, 
      "inputs": [[612, 0, 0]]
    }, 
    {
      "op": "Reshape", 
      "name": "decoder_transformer_4_att_self_reshape2", 
      "attrs": {"shape": "(0, -1, 8, 64)"}, 
      "inputs": [[609, 1, 0]]
    }, 
    {
      "op": "transpose", 
      "name": "decoder_transformer_4_att_self_transpose1", 
      "attrs": {"axes": "(0, 2, 1, 3)"}, 
      "inputs": [[614, 0, 0]]
    }, 
    {
      "op": "Reshape", 
      "name": "decoder_transformer_4_att_self_reshape3", 
      "attrs": {"shape": "(-3, -1, 64)"}, 
      "inputs": [[615, 0, 0]]
    }, 
    {
      "op": "batch_dot", 
      "name": "decoder_transformer_4_att_self_dot_attbatch_dot0", 
      "attrs": {"transpose_b": "True"}, 
      "inputs": [[613, 0, 0], [616, 0, 0]]
    }, 
    {
      "op": "broadcast_add", 
      "name": "decoder_transformer_4_att_self_dot_attbroadcast_add0", 
      "inputs": [[617, 0, 0], [39, 0, 0]]
    }, 
    {
      "op": "softmax", 
      "name": "decoder_transformer_4_att_self_dot_attsoftmax0", 
      "attrs": {"axis": "-1"}, 
      "inputs": [[618, 0, 0]]
    }, 
    {
      "op": "Dropout", 
      "name": "decoder_transformer_4_att_self_dot_attdropout0", 
      "attrs": {"p": "0.1"}, 
      "inputs": [[619, 0, 0]]
    }, 
    {
      "op": "Reshape", 
      "name": "decoder_transformer_4_att_self_reshape4", 
      "attrs": {"shape": "(0, -1, 8, 64)"}, 
      "inputs": [[609, 2, 0]]
    }, 
    {
      "op": "transpose", 
      "name": "decoder_transformer_4_att_self_transpose2", 
      "attrs": {"axes": "(0, 2, 1, 3)"}, 
      "inputs": [[621, 0, 0]]
    }, 
    {
      "op": "Reshape", 
      "name": "decoder_transformer_4_att_self_reshape5", 
      "attrs": {"shape": "(-3, -1, 64)"}, 
      "inputs": [[622, 0, 0]]
    }, 
    {
      "op": "batch_dot", 
      "name": "decoder_transformer_4_att_self_dot_attbatch_dot1", 
      "inputs": [[620, 0, 0], [623, 0, 0]]
    }, 
    {
      "op": "Reshape", 
      "name": "decoder_transformer_4_att_self_reshape6", 
      "attrs": {"shape": "(-4, -1, 8, 0, 64)"}, 
      "inputs": [[624, 0, 0]]
    }, 
    {
      "op": "transpose", 
      "name": "decoder_transformer_4_att_self_transpose3", 
      "attrs": {"axes": "(0, 2, 1, 3)"}, 
      "inputs": [[625, 0, 0]]
    }, 
    {
      "op": "Reshape", 
      "name": "decoder_transformer_4_att_self_reshape7", 
      "attrs": {"shape": "(-1, 0, 512)"}, 
      "inputs": [[626, 0, 0]]
    }, 
    {
      "op": "null", 
      "name": "decoder_transformer_4_att_self_h2o_weight", 
      "attrs": {
        "__dtype__": "0", 
        "__lr_mult__": "1.0", 
        "__shape__": "(512, 0)", 
        "__storage_type__": "0", 
        "__wd_mult__": "1.0"
      }, 
      "inputs": []
    }, 
    {
      "op": "FullyConnected", 
      "name": "decoder_transformer_4_att_self_h2o_fwd", 
      "attrs": {
        "flatten": "False", 
        "no_bias": "True", 
        "num_hidden": "512"
      }, 
      "inputs": [[627, 0, 0], [628, 0, 0]]
    }, 
    {
      "op": "Dropout", 
      "name": "decoder_transformer_4_att_self_post_dropout0", 
      "attrs": {"p": "0.1"}, 
      "inputs": [[629, 0, 0]]
    }, 
    {
      "op": "elemwise_add", 
      "name": "decoder_transformer_4_att_self_post__plus0", 
      "inputs": [[630, 0, 0], [603, 0, 0]]
    }, 
    {
      "op": "null", 
      "name": "decoder_transformer_4_att_enc_pre_norm_gamma", 
      "attrs": {
        "__dtype__": "0", 
        "__init__": "[\"constant\", {\"value\": 1.0}]", 
        "__lr_mult__": "1.0", 
        "__storage_type__": "0", 
        "__wd_mult__": "1.0"
      }, 
      "inputs": []
    }, 
    {
      "op": "null", 
      "name": "decoder_transformer_4_att_enc_pre_norm_beta", 
      "attrs": {
        "__dtype__": "0", 
        "__init__": "[\"constant\", {\"value\": 0.0}]", 
        "__lr_mult__": "1.0", 
        "__storage_type__": "0", 
        "__wd_mult__": "1.0"
      }, 
      "inputs": []
    }, 
    {
      "op": "LayerNorm", 
      "name": "decoder_transformer_4_att_enc_pre_normlayernorm0", 
      "attrs": {
        "axis": "-1", 
        "eps": "1e-06", 
        "output_mean_var": "False"
      }, 
      "inputs": [[631, 0, 0], [632, 0, 0], [633, 0, 0]]
    }, 
    {
      "op": "null", 
      "name": "decoder_transformer_4_att_enc_q2h_weight", 
      "attrs": {
        "__dtype__": "0", 
        "__lr_mult__": "1.0", 
        "__shape__": "(512, 0)", 
        "__storage_type__": "0", 
        "__wd_mult__": "1.0"
      }, 
      "inputs": []
    }, 
    {
      "op": "FullyConnected", 
      "name": "decoder_transformer_4_att_enc_q2h_fwd", 
      "attrs": {
        "flatten": "False", 
        "no_bias": "True", 
        "num_hidden": "512"
      }, 
      "inputs": [[634, 0, 0], [635, 0, 0]]
    }, 
    {
      "op": "_mul_scalar", 
      "name": "decoder_transformer_4_att_enc__mulscalar0", 
      "attrs": {"scalar": "0.125"}, 
      "inputs": [[636, 0, 0]]
    }, 
    {
      "op": "Reshape", 
      "name": "decoder_transformer_4_att_enc_reshape0", 
      "attrs": {"shape": "(0, -1, 8, 64)"}, 
      "inputs": [[637, 0, 0]]
    }, 
    {
      "op": "transpose", 
      "name": "decoder_transformer_4_att_enc_transpose0", 
      "attrs": {"axes": "(0, 2, 1, 3)"}, 
      "inputs": [[638, 0, 0]]
    }, 
    {
      "op": "Reshape", 
      "name": "decoder_transformer_4_att_enc_reshape1", 
      "attrs": {"shape": "(-3, -1, 64)"}, 
      "inputs": [[639, 0, 0]]
    }, 
    {
      "op": "null", 
      "name": "decoder_transformer_4_att_enc_k2h_weight", 
      "attrs": {
        "__dtype__": "0", 
        "__lr_mult__": "1.0", 
        "__shape__": "(512, 0)", 
        "__storage_type__": "0", 
        "__wd_mult__": "1.0"
      }, 
      "inputs": []
    }, 
    {
      "op": "FullyConnected", 
      "name": "decoder_transformer_4_att_enc_k2h_fwd", 
      "attrs": {
        "flatten": "False", 
        "no_bias": "True", 
        "num_hidden": "512"
      }, 
      "inputs": [[343, 0, 0], [641, 0, 0]]
    }, 
    {
      "op": "Reshape", 
      "name": "decoder_transformer_4_att_enc_reshape2", 
      "attrs": {"shape": "(0, -1, 8, 64)"}, 
      "inputs": [[642, 0, 0]]
    }, 
    {
      "op": "transpose", 
      "name": "decoder_transformer_4_att_enc_transpose1", 
      "attrs": {"axes": "(0, 2, 1, 3)"}, 
      "inputs": [[643, 0, 0]]
    }, 
    {
      "op": "Reshape", 
      "name": "decoder_transformer_4_att_enc_reshape3", 
      "attrs": {"shape": "(-3, -1, 64)"}, 
      "inputs": [[644, 0, 0]]
    }, 
    {
      "op": "batch_dot", 
      "name": "decoder_transformer_4_att_enc_dot_attbatch_dot0", 
      "attrs": {"transpose_b": "True"}, 
      "inputs": [[640, 0, 0], [645, 0, 0]]
    }, 
    {
      "op": "broadcast_add", 
      "name": "decoder_transformer_4_att_enc_dot_attbroadcast_add0", 
      "inputs": [[646, 0, 0], [358, 0, 0]]
    }, 
    {
      "op": "softmax", 
      "name": "decoder_transformer_4_att_enc_dot_attsoftmax0", 
      "attrs": {"axis": "-1"}, 
      "inputs": [[647, 0, 0]]
    }, 
    {
      "op": "Dropout", 
      "name": "decoder_transformer_4_att_enc_dot_attdropout0", 
      "attrs": {"p": "0.1"}, 
      "inputs": [[648, 0, 0]]
    }, 
    {
      "op": "null", 
      "name": "decoder_transformer_4_att_enc_v2h_weight", 
      "attrs": {
        "__dtype__": "0", 
        "__lr_mult__": "1.0", 
        "__shape__": "(512, 0)", 
        "__storage_type__": "0", 
        "__wd_mult__": "1.0"
      }, 
      "inputs": []
    }, 
    {
      "op": "FullyConnected", 
      "name": "decoder_transformer_4_att_enc_v2h_fwd", 
      "attrs": {
        "flatten": "False", 
        "no_bias": "True", 
        "num_hidden": "512"
      }, 
      "inputs": [[343, 0, 0], [650, 0, 0]]
    }, 
    {
      "op": "Reshape", 
      "name": "decoder_transformer_4_att_enc_reshape4", 
      "attrs": {"shape": "(0, -1, 8, 64)"}, 
      "inputs": [[651, 0, 0]]
    }, 
    {
      "op": "transpose", 
      "name": "decoder_transformer_4_att_enc_transpose2", 
      "attrs": {"axes": "(0, 2, 1, 3)"}, 
      "inputs": [[652, 0, 0]]
    }, 
    {
      "op": "Reshape", 
      "name": "decoder_transformer_4_att_enc_reshape5", 
      "attrs": {"shape": "(-3, -1, 64)"}, 
      "inputs": [[653, 0, 0]]
    }, 
    {
      "op": "batch_dot", 
      "name": "decoder_transformer_4_att_enc_dot_attbatch_dot1", 
      "inputs": [[649, 0, 0], [654, 0, 0]]
    }, 
    {
      "op": "Reshape", 
      "name": "decoder_transformer_4_att_enc_reshape6", 
      "attrs": {"shape": "(-4, -1, 8, 0, 64)"}, 
      "inputs": [[655, 0, 0]]
    }, 
    {
      "op": "transpose", 
      "name": "decoder_transformer_4_att_enc_transpose3", 
      "attrs": {"axes": "(0, 2, 1, 3)"}, 
      "inputs": [[656, 0, 0]]
    }, 
    {
      "op": "Reshape", 
      "name": "decoder_transformer_4_att_enc_reshape7", 
      "attrs": {"shape": "(-1, 0, 512)"}, 
      "inputs": [[657, 0, 0]]
    }, 
    {
      "op": "null", 
      "name": "decoder_transformer_4_att_enc_h2o_weight", 
      "attrs": {
        "__dtype__": "0", 
        "__lr_mult__": "1.0", 
        "__shape__": "(512, 0)", 
        "__storage_type__": "0", 
        "__wd_mult__": "1.0"
      }, 
      "inputs": []
    }, 
    {
      "op": "FullyConnected", 
      "name": "decoder_transformer_4_att_enc_h2o_fwd", 
      "attrs": {
        "flatten": "False", 
        "no_bias": "True", 
        "num_hidden": "512"
      }, 
      "inputs": [[658, 0, 0], [659, 0, 0]]
    }, 
    {
      "op": "Dropout", 
      "name": "decoder_transformer_4_att_enc_post_dropout0", 
      "attrs": {"p": "0.1"}, 
      "inputs": [[660, 0, 0]]
    }, 
    {
      "op": "elemwise_add", 
      "name": "decoder_transformer_4_att_enc_post__plus0", 
      "inputs": [[661, 0, 0], [631, 0, 0]]
    }, 
    {
      "op": "null", 
      "name": "decoder_transformer_4_ff_pre_norm_gamma", 
      "attrs": {
        "__dtype__": "0", 
        "__init__": "[\"constant\", {\"value\": 1.0}]", 
        "__lr_mult__": "1.0", 
        "__storage_type__": "0", 
        "__wd_mult__": "1.0"
      }, 
      "inputs": []
    }, 
    {
      "op": "null", 
      "name": "decoder_transformer_4_ff_pre_norm_beta", 
      "attrs": {
        "__dtype__": "0", 
        "__init__": "[\"constant\", {\"value\": 0.0}]", 
        "__lr_mult__": "1.0", 
        "__storage_type__": "0", 
        "__wd_mult__": "1.0"
      }, 
      "inputs": []
    }, 
    {
      "op": "LayerNorm", 
      "name": "decoder_transformer_4_ff_pre_normlayernorm0", 
      "attrs": {
        "axis": "-1", 
        "eps": "1e-06", 
        "output_mean_var": "False"
      }, 
      "inputs": [[662, 0, 0], [663, 0, 0], [664, 0, 0]]
    }, 
    {
      "op": "null", 
      "name": "decoder_transformer_4_ff_i2h_weight", 
      "attrs": {
        "__dtype__": "0", 
        "__lr_mult__": "1.0", 
        "__shape__": "(256, 0)", 
        "__storage_type__": "0", 
        "__wd_mult__": "1.0"
      }, 
      "inputs": []
    }, 
    {
      "op": "null", 
      "name": "decoder_transformer_4_ff_i2h_bias", 
      "attrs": {
        "__dtype__": "0", 
        "__init__": "zeros", 
        "__lr_mult__": "1.0", 
        "__shape__": "(256,)", 
        "__storage_type__": "0", 
        "__wd_mult__": "1.0"
      }, 
      "inputs": []
    }, 
    {
      "op": "FullyConnected", 
      "name": "decoder_transformer_4_ff_i2h_fwd", 
      "attrs": {
        "flatten": "False", 
        "no_bias": "False", 
        "num_hidden": "256"
      }, 
      "inputs": [[665, 0, 0], [666, 0, 0], [667, 0, 0]]
    }, 
    {
      "op": "Activation", 
      "name": "decoder_transformer_4_ff_relu0_fwd", 
      "attrs": {"act_type": "relu"}, 
      "inputs": [[668, 0, 0]]
    }, 
    {
      "op": "Dropout", 
      "name": "decoder_transformer_4_ff_dropout0", 
      "attrs": {"p": "0.1"}, 
      "inputs": [[669, 0, 0]]
    }, 
    {
      "op": "null", 
      "name": "decoder_transformer_4_ff_h2o_weight", 
      "attrs": {
        "__dtype__": "0", 
        "__lr_mult__": "1.0", 
        "__shape__": "(512, 0)", 
        "__storage_type__": "0", 
        "__wd_mult__": "1.0"
      }, 
      "inputs": []
    }, 
    {
      "op": "null", 
      "name": "decoder_transformer_4_ff_h2o_bias", 
      "attrs": {
        "__dtype__": "0", 
        "__init__": "zeros", 
        "__lr_mult__": "1.0", 
        "__shape__": "(512,)", 
        "__storage_type__": "0", 
        "__wd_mult__": "1.0"
      }, 
      "inputs": []
    }, 
    {
      "op": "FullyConnected", 
      "name": "decoder_transformer_4_ff_h2o_fwd", 
      "attrs": {
        "flatten": "False", 
        "no_bias": "False", 
        "num_hidden": "512"
      }, 
      "inputs": [[670, 0, 0], [671, 0, 0], [672, 0, 0]]
    }, 
    {
      "op": "Dropout", 
      "name": "decoder_transformer_4_ff_post_dropout0", 
      "attrs": {"p": "0.1"}, 
      "inputs": [[673, 0, 0]]
    }, 
    {
      "op": "elemwise_add", 
      "name": "decoder_transformer_4_ff_post__plus0", 
      "inputs": [[674, 0, 0], [662, 0, 0]]
    }, 
    {
      "op": "null", 
      "name": "decoder_transformer_5_att_self_pre_norm_gamma", 
      "attrs": {
        "__dtype__": "0", 
        "__init__": "[\"constant\", {\"value\": 1.0}]", 
        "__lr_mult__": "1.0", 
        "__storage_type__": "0", 
        "__wd_mult__": "1.0"
      }, 
      "inputs": []
    }, 
    {
      "op": "null", 
      "name": "decoder_transformer_5_att_self_pre_norm_beta", 
      "attrs": {
        "__dtype__": "0", 
        "__init__": "[\"constant\", {\"value\": 0.0}]", 
        "__lr_mult__": "1.0", 
        "__storage_type__": "0", 
        "__wd_mult__": "1.0"
      }, 
      "inputs": []
    }, 
    {
      "op": "LayerNorm", 
      "name": "decoder_transformer_5_att_self_pre_normlayernorm0", 
      "attrs": {
        "axis": "-1", 
        "eps": "1e-06", 
        "output_mean_var": "False"
      }, 
      "inputs": [[675, 0, 0], [676, 0, 0], [677, 0, 0]]
    }, 
    {
      "op": "null", 
      "name": "decoder_transformer_5_att_self_i2h_weight", 
      "attrs": {
        "__dtype__": "0", 
        "__lr_mult__": "1.0", 
        "__shape__": "(1536, 0)", 
        "__storage_type__": "0", 
        "__wd_mult__": "1.0"
      }, 
      "inputs": []
    }, 
    {
      "op": "FullyConnected", 
      "name": "decoder_transformer_5_att_self_i2h_fwd", 
      "attrs": {
        "flatten": "False", 
        "no_bias": "True", 
        "num_hidden": "1536"
      }, 
      "inputs": [[678, 0, 0], [679, 0, 0]]
    }, 
    {
      "op": "SliceChannel", 
      "name": "decoder_transformer_5_att_self_split0", 
      "attrs": {
        "axis": "2", 
        "num_outputs": "3"
      }, 
      "inputs": [[680, 0, 0]]
    }, 
    {
      "op": "_mul_scalar", 
      "name": "decoder_transformer_5_att_self__mulscalar0", 
      "attrs": {"scalar": "0.125"}, 
      "inputs": [[681, 0, 0]]
    }, 
    {
      "op": "Reshape", 
      "name": "decoder_transformer_5_att_self_reshape0", 
      "attrs": {"shape": "(0, -1, 8, 64)"}, 
      "inputs": [[682, 0, 0]]
    }, 
    {
      "op": "transpose", 
      "name": "decoder_transformer_5_att_self_transpose0", 
      "attrs": {"axes": "(0, 2, 1, 3)"}, 
      "inputs": [[683, 0, 0]]
    }, 
    {
      "op": "Reshape", 
      "name": "decoder_transformer_5_att_self_reshape1", 
      "attrs": {"shape": "(-3, -1, 64)"}, 
      "inputs": [[684, 0, 0]]
    }, 
    {
      "op": "Reshape", 
      "name": "decoder_transformer_5_att_self_reshape2", 
      "attrs": {"shape": "(0, -1, 8, 64)"}, 
      "inputs": [[681, 1, 0]]
    }, 
    {
      "op": "transpose", 
      "name": "decoder_transformer_5_att_self_transpose1", 
      "attrs": {"axes": "(0, 2, 1, 3)"}, 
      "inputs": [[686, 0, 0]]
    }, 
    {
      "op": "Reshape", 
      "name": "decoder_transformer_5_att_self_reshape3", 
      "attrs": {"shape": "(-3, -1, 64)"}, 
      "inputs": [[687, 0, 0]]
    }, 
    {
      "op": "batch_dot", 
      "name": "decoder_transformer_5_att_self_dot_attbatch_dot0", 
      "attrs": {"transpose_b": "True"}, 
      "inputs": [[685, 0, 0], [688, 0, 0]]
    }, 
    {
      "op": "broadcast_add", 
      "name": "decoder_transformer_5_att_self_dot_attbroadcast_add0", 
      "inputs": [[689, 0, 0], [39, 0, 0]]
    }, 
    {
      "op": "softmax", 
      "name": "decoder_transformer_5_att_self_dot_attsoftmax0", 
      "attrs": {"axis": "-1"}, 
      "inputs": [[690, 0, 0]]
    }, 
    {
      "op": "Dropout", 
      "name": "decoder_transformer_5_att_self_dot_attdropout0", 
      "attrs": {"p": "0.1"}, 
      "inputs": [[691, 0, 0]]
    }, 
    {
      "op": "Reshape", 
      "name": "decoder_transformer_5_att_self_reshape4", 
      "attrs": {"shape": "(0, -1, 8, 64)"}, 
      "inputs": [[681, 2, 0]]
    }, 
    {
      "op": "transpose", 
      "name": "decoder_transformer_5_att_self_transpose2", 
      "attrs": {"axes": "(0, 2, 1, 3)"}, 
      "inputs": [[693, 0, 0]]
    }, 
    {
      "op": "Reshape", 
      "name": "decoder_transformer_5_att_self_reshape5", 
      "attrs": {"shape": "(-3, -1, 64)"}, 
      "inputs": [[694, 0, 0]]
    }, 
    {
      "op": "batch_dot", 
      "name": "decoder_transformer_5_att_self_dot_attbatch_dot1", 
      "inputs": [[692, 0, 0], [695, 0, 0]]
    }, 
    {
      "op": "Reshape", 
      "name": "decoder_transformer_5_att_self_reshape6", 
      "attrs": {"shape": "(-4, -1, 8, 0, 64)"}, 
      "inputs": [[696, 0, 0]]
    }, 
    {
      "op": "transpose", 
      "name": "decoder_transformer_5_att_self_transpose3", 
      "attrs": {"axes": "(0, 2, 1, 3)"}, 
      "inputs": [[697, 0, 0]]
    }, 
    {
      "op": "Reshape", 
      "name": "decoder_transformer_5_att_self_reshape7", 
      "attrs": {"shape": "(-1, 0, 512)"}, 
      "inputs": [[698, 0, 0]]
    }, 
    {
      "op": "null", 
      "name": "decoder_transformer_5_att_self_h2o_weight", 
      "attrs": {
        "__dtype__": "0", 
        "__lr_mult__": "1.0", 
        "__shape__": "(512, 0)", 
        "__storage_type__": "0", 
        "__wd_mult__": "1.0"
      }, 
      "inputs": []
    }, 
    {
      "op": "FullyConnected", 
      "name": "decoder_transformer_5_att_self_h2o_fwd", 
      "attrs": {
        "flatten": "False", 
        "no_bias": "True", 
        "num_hidden": "512"
      }, 
      "inputs": [[699, 0, 0], [700, 0, 0]]
    }, 
    {
      "op": "Dropout", 
      "name": "decoder_transformer_5_att_self_post_dropout0", 
      "attrs": {"p": "0.1"}, 
      "inputs": [[701, 0, 0]]
    }, 
    {
      "op": "elemwise_add", 
      "name": "decoder_transformer_5_att_self_post__plus0", 
      "inputs": [[702, 0, 0], [675, 0, 0]]
    }, 
    {
      "op": "null", 
      "name": "decoder_transformer_5_att_enc_pre_norm_gamma", 
      "attrs": {
        "__dtype__": "0", 
        "__init__": "[\"constant\", {\"value\": 1.0}]", 
        "__lr_mult__": "1.0", 
        "__storage_type__": "0", 
        "__wd_mult__": "1.0"
      }, 
      "inputs": []
    }, 
    {
      "op": "null", 
      "name": "decoder_transformer_5_att_enc_pre_norm_beta", 
      "attrs": {
        "__dtype__": "0", 
        "__init__": "[\"constant\", {\"value\": 0.0}]", 
        "__lr_mult__": "1.0", 
        "__storage_type__": "0", 
        "__wd_mult__": "1.0"
      }, 
      "inputs": []
    }, 
    {
      "op": "LayerNorm", 
      "name": "decoder_transformer_5_att_enc_pre_normlayernorm0", 
      "attrs": {
        "axis": "-1", 
        "eps": "1e-06", 
        "output_mean_var": "False"
      }, 
      "inputs": [[703, 0, 0], [704, 0, 0], [705, 0, 0]]
    }, 
    {
      "op": "null", 
      "name": "decoder_transformer_5_att_enc_q2h_weight", 
      "attrs": {
        "__dtype__": "0", 
        "__lr_mult__": "1.0", 
        "__shape__": "(512, 0)", 
        "__storage_type__": "0", 
        "__wd_mult__": "1.0"
      }, 
      "inputs": []
    }, 
    {
      "op": "FullyConnected", 
      "name": "decoder_transformer_5_att_enc_q2h_fwd", 
      "attrs": {
        "flatten": "False", 
        "no_bias": "True", 
        "num_hidden": "512"
      }, 
      "inputs": [[706, 0, 0], [707, 0, 0]]
    }, 
    {
      "op": "_mul_scalar", 
      "name": "decoder_transformer_5_att_enc__mulscalar0", 
      "attrs": {"scalar": "0.125"}, 
      "inputs": [[708, 0, 0]]
    }, 
    {
      "op": "Reshape", 
      "name": "decoder_transformer_5_att_enc_reshape0", 
      "attrs": {"shape": "(0, -1, 8, 64)"}, 
      "inputs": [[709, 0, 0]]
    }, 
    {
      "op": "transpose", 
      "name": "decoder_transformer_5_att_enc_transpose0", 
      "attrs": {"axes": "(0, 2, 1, 3)"}, 
      "inputs": [[710, 0, 0]]
    }, 
    {
      "op": "Reshape", 
      "name": "decoder_transformer_5_att_enc_reshape1", 
      "attrs": {"shape": "(-3, -1, 64)"}, 
      "inputs": [[711, 0, 0]]
    }, 
    {
      "op": "null", 
      "name": "decoder_transformer_5_att_enc_k2h_weight", 
      "attrs": {
        "__dtype__": "0", 
        "__lr_mult__": "1.0", 
        "__shape__": "(512, 0)", 
        "__storage_type__": "0", 
        "__wd_mult__": "1.0"
      }, 
      "inputs": []
    }, 
    {
      "op": "FullyConnected", 
      "name": "decoder_transformer_5_att_enc_k2h_fwd", 
      "attrs": {
        "flatten": "False", 
        "no_bias": "True", 
        "num_hidden": "512"
      }, 
      "inputs": [[343, 0, 0], [713, 0, 0]]
    }, 
    {
      "op": "Reshape", 
      "name": "decoder_transformer_5_att_enc_reshape2", 
      "attrs": {"shape": "(0, -1, 8, 64)"}, 
      "inputs": [[714, 0, 0]]
    }, 
    {
      "op": "transpose", 
      "name": "decoder_transformer_5_att_enc_transpose1", 
      "attrs": {"axes": "(0, 2, 1, 3)"}, 
      "inputs": [[715, 0, 0]]
    }, 
    {
      "op": "Reshape", 
      "name": "decoder_transformer_5_att_enc_reshape3", 
      "attrs": {"shape": "(-3, -1, 64)"}, 
      "inputs": [[716, 0, 0]]
    }, 
    {
      "op": "batch_dot", 
      "name": "decoder_transformer_5_att_enc_dot_attbatch_dot0", 
      "attrs": {"transpose_b": "True"}, 
      "inputs": [[712, 0, 0], [717, 0, 0]]
    }, 
    {
      "op": "broadcast_add", 
      "name": "decoder_transformer_5_att_enc_dot_attbroadcast_add0", 
      "inputs": [[718, 0, 0], [358, 0, 0]]
    }, 
    {
      "op": "softmax", 
      "name": "decoder_transformer_5_att_enc_dot_attsoftmax0", 
      "attrs": {"axis": "-1"}, 
      "inputs": [[719, 0, 0]]
    }, 
    {
      "op": "Dropout", 
      "name": "decoder_transformer_5_att_enc_dot_attdropout0", 
      "attrs": {"p": "0.1"}, 
      "inputs": [[720, 0, 0]]
    }, 
    {
      "op": "null", 
      "name": "decoder_transformer_5_att_enc_v2h_weight", 
      "attrs": {
        "__dtype__": "0", 
        "__lr_mult__": "1.0", 
        "__shape__": "(512, 0)", 
        "__storage_type__": "0", 
        "__wd_mult__": "1.0"
      }, 
      "inputs": []
    }, 
    {
      "op": "FullyConnected", 
      "name": "decoder_transformer_5_att_enc_v2h_fwd", 
      "attrs": {
        "flatten": "False", 
        "no_bias": "True", 
        "num_hidden": "512"
      }, 
      "inputs": [[343, 0, 0], [722, 0, 0]]
    }, 
    {
      "op": "Reshape", 
      "name": "decoder_transformer_5_att_enc_reshape4", 
      "attrs": {"shape": "(0, -1, 8, 64)"}, 
      "inputs": [[723, 0, 0]]
    }, 
    {
      "op": "transpose", 
      "name": "decoder_transformer_5_att_enc_transpose2", 
      "attrs": {"axes": "(0, 2, 1, 3)"}, 
      "inputs": [[724, 0, 0]]
    }, 
    {
      "op": "Reshape", 
      "name": "decoder_transformer_5_att_enc_reshape5", 
      "attrs": {"shape": "(-3, -1, 64)"}, 
      "inputs": [[725, 0, 0]]
    }, 
    {
      "op": "batch_dot", 
      "name": "decoder_transformer_5_att_enc_dot_attbatch_dot1", 
      "inputs": [[721, 0, 0], [726, 0, 0]]
    }, 
    {
      "op": "Reshape", 
      "name": "decoder_transformer_5_att_enc_reshape6", 
      "attrs": {"shape": "(-4, -1, 8, 0, 64)"}, 
      "inputs": [[727, 0, 0]]
    }, 
    {
      "op": "transpose", 
      "name": "decoder_transformer_5_att_enc_transpose3", 
      "attrs": {"axes": "(0, 2, 1, 3)"}, 
      "inputs": [[728, 0, 0]]
    }, 
    {
      "op": "Reshape", 
      "name": "decoder_transformer_5_att_enc_reshape7", 
      "attrs": {"shape": "(-1, 0, 512)"}, 
      "inputs": [[729, 0, 0]]
    }, 
    {
      "op": "null", 
      "name": "decoder_transformer_5_att_enc_h2o_weight", 
      "attrs": {
        "__dtype__": "0", 
        "__lr_mult__": "1.0", 
        "__shape__": "(512, 0)", 
        "__storage_type__": "0", 
        "__wd_mult__": "1.0"
      }, 
      "inputs": []
    }, 
    {
      "op": "FullyConnected", 
      "name": "decoder_transformer_5_att_enc_h2o_fwd", 
      "attrs": {
        "flatten": "False", 
        "no_bias": "True", 
        "num_hidden": "512"
      }, 
      "inputs": [[730, 0, 0], [731, 0, 0]]
    }, 
    {
      "op": "Dropout", 
      "name": "decoder_transformer_5_att_enc_post_dropout0", 
      "attrs": {"p": "0.1"}, 
      "inputs": [[732, 0, 0]]
    }, 
    {
      "op": "elemwise_add", 
      "name": "decoder_transformer_5_att_enc_post__plus0", 
      "inputs": [[733, 0, 0], [703, 0, 0]]
    }, 
    {
      "op": "null", 
      "name": "decoder_transformer_5_ff_pre_norm_gamma", 
      "attrs": {
        "__dtype__": "0", 
        "__init__": "[\"constant\", {\"value\": 1.0}]", 
        "__lr_mult__": "1.0", 
        "__storage_type__": "0", 
        "__wd_mult__": "1.0"
      }, 
      "inputs": []
    }, 
    {
      "op": "null", 
      "name": "decoder_transformer_5_ff_pre_norm_beta", 
      "attrs": {
        "__dtype__": "0", 
        "__init__": "[\"constant\", {\"value\": 0.0}]", 
        "__lr_mult__": "1.0", 
        "__storage_type__": "0", 
        "__wd_mult__": "1.0"
      }, 
      "inputs": []
    }, 
    {
      "op": "LayerNorm", 
      "name": "decoder_transformer_5_ff_pre_normlayernorm0", 
      "attrs": {
        "axis": "-1", 
        "eps": "1e-06", 
        "output_mean_var": "False"
      }, 
      "inputs": [[734, 0, 0], [735, 0, 0], [736, 0, 0]]
    }, 
    {
      "op": "null", 
      "name": "decoder_transformer_5_ff_i2h_weight", 
      "attrs": {
        "__dtype__": "0", 
        "__lr_mult__": "1.0", 
        "__shape__": "(256, 0)", 
        "__storage_type__": "0", 
        "__wd_mult__": "1.0"
      }, 
      "inputs": []
    }, 
    {
      "op": "null", 
      "name": "decoder_transformer_5_ff_i2h_bias", 
      "attrs": {
        "__dtype__": "0", 
        "__init__": "zeros", 
        "__lr_mult__": "1.0", 
        "__shape__": "(256,)", 
        "__storage_type__": "0", 
        "__wd_mult__": "1.0"
      }, 
      "inputs": []
    }, 
    {
      "op": "FullyConnected", 
      "name": "decoder_transformer_5_ff_i2h_fwd", 
      "attrs": {
        "flatten": "False", 
        "no_bias": "False", 
        "num_hidden": "256"
      }, 
      "inputs": [[737, 0, 0], [738, 0, 0], [739, 0, 0]]
    }, 
    {
      "op": "Activation", 
      "name": "decoder_transformer_5_ff_relu0_fwd", 
      "attrs": {"act_type": "relu"}, 
      "inputs": [[740, 0, 0]]
    }, 
    {
      "op": "Dropout", 
      "name": "decoder_transformer_5_ff_dropout0", 
      "attrs": {"p": "0.1"}, 
      "inputs": [[741, 0, 0]]
    }, 
    {
      "op": "null", 
      "name": "decoder_transformer_5_ff_h2o_weight", 
      "attrs": {
        "__dtype__": "0", 
        "__lr_mult__": "1.0", 
        "__shape__": "(512, 0)", 
        "__storage_type__": "0", 
        "__wd_mult__": "1.0"
      }, 
      "inputs": []
    }, 
    {
      "op": "null", 
      "name": "decoder_transformer_5_ff_h2o_bias", 
      "attrs": {
        "__dtype__": "0", 
        "__init__": "zeros", 
        "__lr_mult__": "1.0", 
        "__shape__": "(512,)", 
        "__storage_type__": "0", 
        "__wd_mult__": "1.0"
      }, 
      "inputs": []
    }, 
    {
      "op": "FullyConnected", 
      "name": "decoder_transformer_5_ff_h2o_fwd", 
      "attrs": {
        "flatten": "False", 
        "no_bias": "False", 
        "num_hidden": "512"
      }, 
      "inputs": [[742, 0, 0], [743, 0, 0], [744, 0, 0]]
    }, 
    {
      "op": "Dropout", 
      "name": "decoder_transformer_5_ff_post_dropout0", 
      "attrs": {"p": "0.1"}, 
      "inputs": [[745, 0, 0]]
    }, 
    {
      "op": "elemwise_add", 
      "name": "decoder_transformer_5_ff_post__plus0", 
      "inputs": [[746, 0, 0], [734, 0, 0]]
    }, 
    {
      "op": "null", 
      "name": "decoder_transformer_final_process_norm_gamma", 
      "attrs": {
        "__dtype__": "0", 
        "__init__": "[\"constant\", {\"value\": 1.0}]", 
        "__lr_mult__": "1.0", 
        "__storage_type__": "0", 
        "__wd_mult__": "1.0"
      }, 
      "inputs": []
    }, 
    {
      "op": "null", 
      "name": "decoder_transformer_final_process_norm_beta", 
      "attrs": {
        "__dtype__": "0", 
        "__init__": "[\"constant\", {\"value\": 0.0}]", 
        "__lr_mult__": "1.0", 
        "__storage_type__": "0", 
        "__wd_mult__": "1.0"
      }, 
      "inputs": []
    }, 
    {
      "op": "LayerNorm", 
      "name": "decoder_transformer_final_process_normlayernorm0", 
      "attrs": {
        "axis": "-1", 
        "eps": "1e-06", 
        "output_mean_var": "False"
      }, 
      "inputs": [[747, 0, 0], [748, 0, 0], [749, 0, 0]]
    }, 
    {
      "op": "Reshape", 
      "name": "reshape3", 
      "attrs": {"shape": "(-3, 0)"}, 
      "inputs": [[750, 0, 0]]
    }, 
    {
      "op": "null", 
      "name": "target_output_weight", 
      "attrs": {
        "__dtype__": "0", 
        "__shape__": "(8323, 512)"
      }, 
      "inputs": []
    }, 
    {
      "op": "null", 
      "name": "target_output_bias", 
      "inputs": []
    }, 
    {
      "op": "FullyConnected", 
      "name": "logits", 
      "attrs": {
        "flatten": "False", 
        "num_hidden": "8323"
      }, 
      "inputs": [[751, 0, 0], [752, 0, 0], [753, 0, 0]]
    }, 
    {
      "op": "null", 
      "name": "target_label", 
      "inputs": []
    }, 
    {
      "op": "Reshape", 
      "name": "reshape0", 
      "attrs": {"shape": "(-1,)"}, 
      "inputs": [[755, 0, 0]]
    }, 
    {
      "op": "SoftmaxOutput", 
      "name": "softmax", 
      "attrs": {
        "ignore_label": "0", 
        "normalization": "valid", 
        "smooth_alpha": "0.1", 
        "use_ignore": "True"
      }, 
      "inputs": [[754, 0, 0], [756, 0, 0]]
    }
  ], 
  "arg_nodes": [
    0, 
    1, 
    19, 
    20, 
    22, 
    50, 
    54, 
    55, 
    57, 
    63, 
    65, 
    83, 
    84, 
    86, 
    119, 
    123, 
    124, 
    126, 
    127, 
    131, 
    132, 
    136, 
    137, 
    139, 
    160, 
    164, 
    165, 
    167, 
    168, 
    172, 
    173, 
    177, 
    178, 
    180, 
    201, 
    205, 
    206, 
    208, 
    209, 
    213, 
    214, 
    218, 
    219, 
    221, 
    242, 
    246, 
    247, 
    249, 
    250, 
    254, 
    255, 
    259, 
    260, 
    262, 
    283, 
    287, 
    288, 
    290, 
    291, 
    295, 
    296, 
    300, 
    301, 
    303, 
    324, 
    328, 
    329, 
    331, 
    332, 
    336, 
    337, 
    341, 
    342, 
    344, 
    362, 
    371, 
    375, 
    376, 
    378, 
    379, 
    383, 
    384, 
    388, 
    389, 
    391, 
    412, 
    416, 
    417, 
    419, 
    425, 
    434, 
    443, 
    447, 
    448, 
    450, 
    451, 
    455, 
    456, 
    460, 
    461, 
    463, 
    484, 
    488, 
    489, 
    491, 
    497, 
    506, 
    515, 
    519, 
    520, 
    522, 
    523, 
    527, 
    528, 
    532, 
    533, 
    535, 
    556, 
    560, 
    561, 
    563, 
    569, 
    578, 
    587, 
    591, 
    592, 
    594, 
    595, 
    599, 
    600, 
    604, 
    605, 
    607, 
    628, 
    632, 
    633, 
    635, 
    641, 
    650, 
    659, 
    663, 
    664, 
    666, 
    667, 
    671, 
    672, 
    676, 
    677, 
    679, 
    700, 
    704, 
    705, 
    707, 
    713, 
    722, 
    731, 
    735, 
    736, 
    738, 
    739, 
    743, 
    744, 
    748, 
    749, 
    752, 
    753, 
    755
  ], 
  "node_row_ptr": [
    0, 
    1, 
    2, 
    3, 
    4, 
    5, 
    6, 
    7, 
    8, 
    9, 
    10, 
    11, 
    12, 
    13, 
    14, 
    15, 
    16, 
    17, 
    18, 
    20, 
    21, 
    22, 
    25, 
    26, 
    27, 
    30, 
    31, 
    32, 
    33, 
    34, 
    35, 
    36, 
    37, 
    38, 
    39, 
    40, 
    41, 
    42, 
    43, 
    44, 
    45, 
    46, 
    47, 
    49, 
    50, 
    51, 
    52, 
    53, 
    54, 
    55, 
    56, 
    57, 
    58, 
    60, 
    61, 
    62, 
    63, 
    66, 
    67, 
    68, 
    69, 
    70, 
    71, 
    72, 
    73, 
    74, 
    75, 
    76, 
    77, 
    78, 
    79, 
    80, 
    81, 
    82, 
    83, 
    84, 
    85, 
    86, 
    87, 
    88, 
    89, 
    90, 
    91, 
    93, 
    94, 
    95, 
    98, 
    99, 
    100, 
    103, 
    104, 
    105, 
    106, 
    107, 
    108, 
    109, 
    110, 
    111, 
    112, 
    113, 
    114, 
    115, 
    116, 
    117, 
    118, 
    119, 
    120, 
    121, 
    122, 
    123, 
    124, 
    125, 
    127, 
    128, 
    129, 
    130, 
    131, 
    132, 
    133, 
    134, 
    135, 
    136, 
    138, 
    139, 
    140, 
    141, 
    144, 
    145, 
    146, 
    147, 
    148, 
    150, 
    151, 
    152, 
    153, 
    155, 
    156, 
    157, 
    158, 
    161, 
    162, 
    163, 
    166, 
    167, 
    168, 
    169, 
    170, 
    171, 
    172, 
    173, 
    174, 
    175, 
    176, 
    178, 
    179, 
    180, 
    181, 
    182, 
    183, 
    184, 
    185, 
    186, 
    187, 
    189, 
    190, 
    191, 
    192, 
    195, 
    196, 
    197, 
    198, 
    199, 
    201, 
    202, 
    203, 
    204, 
    206, 
    207, 
    208, 
    209, 
    212, 
    213, 
    214, 
    217, 
    218, 
    219, 
    220, 
    221, 
    222, 
    223, 
    224, 
    225, 
    226, 
    227, 
    229, 
    230, 
    231, 
    232, 
    233, 
    234, 
    235, 
    236, 
    237, 
    238, 
    240, 
    241, 
    242, 
    243, 
    246, 
    247, 
    248, 
    249, 
    250, 
    252, 
    253, 
    254, 
    255, 
    257, 
    258, 
    259, 
    260, 
    263, 
    264, 
    265, 
    268, 
    269, 
    270, 
    271, 
    272, 
    273, 
    274, 
    275, 
    276, 
    277, 
    278, 
    280, 
    281, 
    282, 
    283, 
    284, 
    285, 
    286, 
    287, 
    288, 
    289, 
    291, 
    292, 
    293, 
    294, 
    297, 
    298, 
    299, 
    300, 
    301, 
    303, 
    304, 
    305, 
    306, 
    308, 
    309, 
    310, 
    311, 
    314, 
    315, 
    316, 
    319, 
    320, 
    321, 
    322, 
    323, 
    324, 
    325, 
    326, 
    327, 
    328, 
    329, 
    331, 
    332, 
    333, 
    334, 
    335, 
    336, 
    337, 
    338, 
    339, 
    340, 
    342, 
    343, 
    344, 
    345, 
    348, 
    349, 
    350, 
    351, 
    352, 
    354, 
    355, 
    356, 
    357, 
    359, 
    360, 
    361, 
    362, 
    365, 
    366, 
    367, 
    370, 
    371, 
    372, 
    373, 
    374, 
    375, 
    376, 
    377, 
    378, 
    379, 
    380, 
    382, 
    383, 
    384, 
    385, 
    386, 
    387, 
    388, 
    389, 
    390, 
    391, 
    393, 
    394, 
    395, 
    396, 
    399, 
    400, 
    401, 
    402, 
    403, 
    405, 
    406, 
    407, 
    408, 
    410, 
    411, 
    412, 
    413, 
    416, 
    417, 
    418, 
    419, 
    420, 
    421, 
    422, 
    423, 
    424, 
    425, 
    426, 
    427, 
    428, 
    429, 
    430, 
    431, 
    432, 
    433, 
    435, 
    436, 
    437, 
    438, 
    439, 
    440, 
    441, 
    442, 
    443, 
    444, 
    445, 
    446, 
    448, 
    449, 
    450, 
    451, 
    454, 
    455, 
    456, 
    457, 
    458, 
    460, 
    461, 
    462, 
    463, 
    465, 
    466, 
    467, 
    468, 
    471, 
    472, 
    473, 
    476, 
    477, 
    478, 
    479, 
    480, 
    481, 
    482, 
    483, 
    484, 
    485, 
    486, 
    488, 
    489, 
    490, 
    491, 
    492, 
    493, 
    494, 
    495, 
    496, 
    497, 
    499, 
    500, 
    501, 
    502, 
    505, 
    506, 
    507, 
    508, 
    509, 
    510, 
    511, 
    512, 
    513, 
    514, 
    515, 
    516, 
    517, 
    518, 
    519, 
    521, 
    522, 
    523, 
    524, 
    525, 
    526, 
    527, 
    528, 
    529, 
    530, 
    531, 
    532, 
    534, 
    535, 
    536, 
    537, 
    540, 
    541, 
    542, 
    543, 
    544, 
    546, 
    547, 
    548, 
    549, 
    551, 
    552, 
    553, 
    554, 
    557, 
    558, 
    559, 
    562, 
    563, 
    564, 
    565, 
    566, 
    567, 
    568, 
    569, 
    570, 
    571, 
    572, 
    574, 
    575, 
    576, 
    577, 
    578, 
    579, 
    580, 
    581, 
    582, 
    583, 
    585, 
    586, 
    587, 
    588, 
    591, 
    592, 
    593, 
    594, 
    595, 
    596, 
    597, 
    598, 
    599, 
    600, 
    601, 
    602, 
    603, 
    604, 
    605, 
    607, 
    608, 
    609, 
    610, 
    611, 
    612, 
    613, 
    614, 
    615, 
    616, 
    617, 
    618, 
    620, 
    621, 
    622, 
    623, 
    626, 
    627, 
    628, 
    629, 
    630, 
    632, 
    633, 
    634, 
    635, 
    637, 
    638, 
    639, 
    640, 
    643, 
    644, 
    645, 
    648, 
    649, 
    650, 
    651, 
    652, 
    653, 
    654, 
    655, 
    656, 
    657, 
    658, 
    660, 
    661, 
    662, 
    663, 
    664, 
    665, 
    666, 
    667, 
    668, 
    669, 
    671, 
    672, 
    673, 
    674, 
    677, 
    678, 
    679, 
    680, 
    681, 
    682, 
    683, 
    684, 
    685, 
    686, 
    687, 
    688, 
    689, 
    690, 
    691, 
    693, 
    694, 
    695, 
    696, 
    697, 
    698, 
    699, 
    700, 
    701, 
    702, 
    703, 
    704, 
    706, 
    707, 
    708, 
    709, 
    712, 
    713, 
    714, 
    715, 
    716, 
    718, 
    719, 
    720, 
    721, 
    723, 
    724, 
    725, 
    726, 
    729, 
    730, 
    731, 
    734, 
    735, 
    736, 
    737, 
    738, 
    739, 
    740, 
    741, 
    742, 
    743, 
    744, 
    746, 
    747, 
    748, 
    749, 
    750, 
    751, 
    752, 
    753, 
    754, 
    755, 
    757, 
    758, 
    759, 
    760, 
    763, 
    764, 
    765, 
    766, 
    767, 
    768, 
    769, 
    770, 
    771, 
    772, 
    773, 
    774, 
    775, 
    776, 
    777, 
    779, 
    780, 
    781, 
    782, 
    783, 
    784, 
    785, 
    786, 
    787, 
    788, 
    789, 
    790, 
    792, 
    793, 
    794, 
    795, 
    798, 
    799, 
    800, 
    801, 
    802, 
    804, 
    805, 
    806, 
    807, 
    809, 
    810, 
    811, 
    812, 
    815, 
    816, 
    817, 
    820, 
    821, 
    822, 
    823, 
    824, 
    825, 
    826, 
    827, 
    828, 
    829, 
    830, 
    832, 
    833, 
    834, 
    835, 
    836, 
    837, 
    838, 
    839, 
    840, 
    841, 
    843, 
    844, 
    845, 
    846, 
    849, 
    850, 
    851, 
    852, 
    853, 
    854, 
    855, 
    856, 
    857, 
    858, 
    859, 
    860, 
    861, 
    862, 
    863, 
    865, 
    866, 
    867, 
    868, 
    869, 
    870, 
    871, 
    872, 
    873, 
    874, 
    875, 
    876, 
    878, 
    879, 
    880, 
    881, 
    884, 
    885, 
    886, 
    887, 
    888, 
    890, 
    891, 
    892, 
    893, 
    895, 
    896, 
    897, 
    898, 
    901, 
    902, 
    903, 
    904, 
    905, 
    906, 
    907, 
    908
  ], 
  "heads": [[757, 0, 0]], 
  "attrs": {"mxnet_version": ["int", 10500]}
}